Adaptive NVAR single run with plots/best_joint_model_0percent_noise.pth (torch, 451556 bytes, 5 tensors)

mlp.net.0.weight f8 [2000, 6]
-0.4007322152683091 0.24256268725483296 -0.12341522407954839 -0.4871119351180486 0.09801359702520732 0.14750236866395236 0.14619507688623162 -0.33522149872965573
-0.08487139707303738 -0.45486409618897455 -0.10252021018113448 0.22227744225195306 -0.47631393754091167 -0.438266113761401 0.15520350486493073 -0.130005525844684
0.3728319287197859 0.21891524769688928 -0.08668049872272963 -0.2985008258560248 0.033538835478210176 0.18251515382660474 0.49579558795952267 0.03407579925145862
-0.29131738099575916 -0.3514233021062683 -0.045672688882188395 -0.41761105551445016 -0.07620486799776119 0.2990543100471742 0.29015680897581053 0.01887826476803951
0.10783131902230228 -0.1599285300355078 -0.35974262209363894 0.017342563535123482 0.0760210341422122 0.32340197750136035 -0.07847689875684184 -0.007352722872836757
0.46051932490845204 0.05677334327648049 -0.27256452019292193 -0.23976390873276637 -0.3608155960991849 0.43868110515655384 -0.19423878996496077 -0.34677692539360827
-0.18762507907751133 0.3278631819203038 -0.2118272521643855 0.26186770668592996 0.47180048712330014 -0.025967694194970168 -0.3174163588133899 0.25251836117815296
0.0012397636445346148 -0.04158126087794788 -0.38087356284455465 0.07759044146734642 0.136483574484933 0.38440493039918777 -0.14444464489172504 -0.08313011044581124
0.29042586689749633 -0.27769832956522106 0.29848232733080504 0.20734803514608252 0.08019802178070091 0.4108197627331314 0.16217688100453465 0.019892627825273908
-0.12144795409152646 0.37602919639882 -0.07462093146963823 0.3916818295600223 -0.09778110540880347 -0.29276098024420455 -0.28096489834807864 0.36375933335484234
0.32459753894127064 -0.040198459128440805 0.3578207606228125 -0.4013656433370286 0.13739973798522073 -0.33742970645690135 -0.38812876801727497 0.06889775411167413
-0.19626746979092424 -0.031132204612315608 0.2651843059635432 -0.18571779719171194 -0.13753497965422173 0.15966765864624974 -0.42618934276418285 0.12462525574682437
0.2759433562252068 0.06330456746770567 0.2946776919237994 0.3656069312892546 0.43486885338682735 -0.4537998646054607 -0.1873645354664832 -0.4370013442858711
-0.1790422894896856 0.2822943847758538 -0.4892128267321059 0.27107237967244513 -0.3116233916490865 -0.23649761871723324 -0.06467303883172533 -0.254822436199775
0.36929198533194774 -0.1322158184955758 -0.20878209239113693 0.3968736550444017 0.12573437701974388 -0.12571326085576703 0.4652032047104427 0.00734800561273445
-0.055962226930618454 0.3981658678900592 -0.17644721353645562 -0.23838132988055857 0.22523694814193454 -0.13734282193302647 0.4691370326908044 0.14356553105792513
-0.19647870538963152 0.19308214194884427 0.31991363909951737 0.04053300378354435 -0.10913947602634952 0.11991242924172679 -0.25000155281556663 0.24417317460472696
0.49800117820317436 -0.18583317872823266 0.4210984241498342 -0.40229286735409536 0.2944572556769285 0.19164922248700747 0.37939624009632417 -0.015664018177831963
-0.20197372455225446 -0.2420513086697313 0.29106728831805256 0.007622529866971697 -0.0018001284293851106 -0.12438603344093195 -0.3495385357491246 0.30371863278578876
-0.3524060282616557 -0.15939995031849993 0.3742699264924662 0.1990318964052427 -0.5135745603711068 -0.3460680970199338 -0.18402092371797665 -0.32091615043948885
0.22566904112556466 -0.19683630054821966 0.0564483603526215 0.07221143014482502 0.23703631093558408 0.3639747713807915 0.17403455782449234 -0.15376883708992325
-0.20008199639684343 -0.11782177657886421 0.21524201700677914 0.3960104810578919 -0.18054597263653346 -0.8639659315402013 0.1555389858713255 0.08407106595874622
0.178136687131228 -0.1703655049743816 0.28904930772044285 -0.011948702103999178 -0.01839908665150963 0.16206263665443166 0.12854496514964026 -0.16487066739578177
0.47504691271762783 0.09682269492795854 0.28592844139232604 -0.07470906302363088 -0.3978854231423903 0.2074697880924905 0.1348438382829135 0.23720307805648325
0.16763364549770668 0.09341230100284167 -0.23647919036185522 0.0016007000910327814 0.018358118000355444 0.29440866369343976 -0.22382830982221996 0.42536996714404485
-0.2768880071459579 -0.04819025985924806 0.38999033775086206 0.016208703906082485 -0.3094877995729604 0.23427651059629692 -0.06367417718399179 -0.41863911930489234
-0.39889192834008314 0.02458183902600598 0.026173785313588535 -0.07182341744721218 0.3611169199983531 -0.34720203035217645 -0.1877119245282121 -0.2261670422738221
0.03424286303401615 -0.16606245023980776 0.30831577759405265 0.0901289384871956 -0.3255707116491369 0.26461112353897587 0.2665676839715214 0.276694533587248
-0.341527359130144 0.1518032973576803 0.42001906824265006 0.3502986501296677 0.16498807718814798 -0.021452187479128214 -0.08498992935551596 -0.24926123423464058
-0.3457476832971573 -0.17762894951754976 -0.2659926356854672 0.031100633642963407 0.43241509556804664 -0.6310000553195028 -0.03801668984246536 0.18333514492773714
0.3354147306440853 0.30298496330979174 -0.005941706664232382 -0.014592911618458876 -0.02591127211809324 0.029718045380869373 0.19723465646286092 0.062308450561671606
-0.05144691108803131 -0.10613991174169572 0.056502328506556426 0.23068133414248174 0.4662720728231083 0.26357291473098693 0.33121406476616067 0.21273463505574414
00000000: 39fc c1bb 98a5 d9bf 1fa4 7e4c 4b0c cf3f
00000010: 460b 40df 2398 bfbf d4b0 b489 d72c dfbf
00000020: da5d c949 6b17 b93f 4b42 bf8c 5be1 c23f
00000030: 4e02 0831 85b6 c23f 4370 7ddf 4474 d5bf
00000040: 0966 cbc2 21ba b5bf 4d66 504c 7e1c ddbf
00000050: 6332 e8b5 c33e babf 562a 8e54 9673 cc3f
00000060: 3e80 1774 ed7b debf 0437 6350 8d0c dcbf
00000070: 484a cf5c b5dd c33f 82ae e664 05a4 c0bf
00000080: ac63 3073 7adc d73f b318 ba32 6a05 cc3f
00000090: 5f10 3773 b130 b6bf 0a5c 3835 a31a d3bf
000000a0: 77b7 0c93 002c a13f afd6 5a14 a85c c73f
000000b0: 2962 f26a 1dbb df3f 9c7a bd16 6272 a13f
000000c0: a785 08a8 f1a4 d2bf ed51 6629 b87d d6bf
000000d0: 0886 2322 6962 a7bf 957c 78b8 23ba dabf
000000e0: 72ac d887 2982 b3bf 6a59 58b0 b423 d33f
000000f0: 22d2 50dd ed91 d23f 13c6 22e7 d254 933f
00000100: da71 af54 d59a bb3f 0195 19bf 8978 c4bf
00000110: 56a5 37eb 0506 d7bf d13f d9bc 3fc2 913f
00000120: 2aeb 724f 1d76 b33f e01f 3535 9eb2 d43f
00000130: 91f2 a6e1 0f17 b4bf 24fa 6784 e31d 7ebf
00000140: 6419 ea0b 2679 dd3f d96a 5049 6511 ad3f
00000150: 75d3 1175 b271 d1bf a259 6271 95b0 cebf
00000160: e27e 484c 9a17 d7bf 7550 01ea 5913 dc3f
00000170: abce 4111 d1dc c8bf b2ab 64d8 9731 d6bf
00000180: bf0e 463d 1904 c8bf c540 fada b5fb d43f
00000190: 554a 39c8 271d cbbf c20d 06c5 70c2 d03f
000001a0: c49c 9bab fa31 de3f a99a 4775 4697 9abf
000001b0: 0a69 14b4 8c50 d4bf 6894 b9c5 4229 d03f
000001c0: 5106 b713 f24f 543f 2fc8 3197 234a a5bf
000001d0: e603 1582 3b60 d8bf da9e 9598 f7dc b33f
000001e0: cd4e 6d34 4b78 c13f 2e15 1f23 179a d83f
000001f0: a436 f280 297d c2bf fb78 add1 0348 b5bf
00000200: 372e 0f60 5696 d23f abbb e836 cfc5 d1bf
00000210: 3077 949e 551a d33f eecf eb62 618a ca3f
00000220: 7983 c088 db87 b43f 5950 5ff9 de4a da3f
00000230: 1c77 0a48 36c2 c43f e2a2 c3a7 bb5e 943f
00000240: 3b3d fd8e 3617 bfbf 23f1 37c3 dc10 d83f
00000250: e157 427c 5b1a b3bf 9a74 19aa 5011 d93f
00000260: 28c5 e5b9 2e08 b9bf 9366 ec8c 98bc d2bf
00000270: 51a7 6e32 54fb d1bf 80ec 173a d547 d73f
00000280: 9a59 87c1 34c6 d43f 44cc 9c76 e494 a4bf
00000290: d71b 2d0c 89e6 d63f e6b6 f785 f9af d9bf
000002a0: 1f10 908a 5096 c13f f399 7bc4 7298 d5bf
000002b0: 8557 510b 1ad7 d8bf fb6f ad80 48a3 b13f
000002c0: e4a5 02de 4a1f c9bf a72b a6e2 1ee1 9fbf
000002d0: f3a7 6198 c7f8 d03f ba9d 9ccc 99c5 c7bf
000002e0: 4ee0 d507 bf9a c1bf 0fa9 0e66 fd6f c43f
000002f0: 8adb 44aa af46 dbbf f030 b0d5 70e7 bf3f
00000300: 9649 a252 0ea9 d13f 9b12 f666 ba34 b03f
00000310: 531a 6bd2 ffdb d23f 5602 459d 1a66 d73f
00000320: ba1b d62b e4d4 db3f 3938 5a96 0e0b ddbf
00000330: 9f1f 21a4 8ffb c7bf bc03 817c d4f7 dbbf
00000340: e4c5 fa94 dbea c6bf 1a3b 9d77 1c11 d23f
00000350: 6d47 e650 434f dfbf e6b0 62f7 3f59 d13f
00000360: 904a f33c a3f1 d3bf 6a77 fcd0 8d45 cebf
00000370: 3d17 b78a 698e b0bf 13f7 70c3 024f d0bf
00000380: 7a3d ebd9 7aa2 d73f 42e7 39ac 72ec c0bf
00000390: a6ba 6721 5fb9 cabf f9d1 43c2 6066 d93f
000003a0: a030 a466 1018 c03f d346 0644 5f17 c0bf
000003b0: 9972 8ea9 e3c5 dd3f 2fa3 c23c f118 7e3f
000003c0: 8de8 f4bc 14a7 acbf 2329 3eb1 8c7b d93f
000003d0: ff00 ce81 d295 c6bf b730 e887 4783 cebf
000003e0: 216b 0f77 90d4 cc3f 3377 4518 7394 c1bf
000003f0: 9cf7 2f55 5706 de3f 3803 5df6 5a60 c23f
00000400: 3023 01d7 3626 c9bf 4253 8e66 eab6 c83f
00000410: 7783 5e0e 7779 d43f 2864 51eb bdc0 a43f
00000420: ee59 3c90 90f0 bbbf 3c25 fab9 94b2 be3f
00000430: 5db1 5283 0600 d0bf 3b70 be0b 1141 cf3f
00000440: 7022 7055 40df df3f 3b22 93b0 61c9 c7bf
00000450: 22b9 07ce 46f3 da3f 41cb 2c95 2abf d9bf
00000460: c8f2 cc3e 63d8 d23f e158 7133 f687 c83f
00000470: d319 dc2a 0748 d83f 2de2 3077 3a0a 90bf
00000480: 2337 cd66 46da c9bf 3662 588b 89fb cebf
00000490: 69bb 10b1 d8a0 d23f 36e2 dc47 cd38 7f3f
000004a0: 4857 e62e 497e 5dbf 333d b559 c3d7 bfbf
000004b0: 69fd eee0 d65e d6bf 0b0d c046 2070 d33f
000004c0: 1403 9303 d28d d6bf bf0d cdb2 3767 c4bf
000004d0: 7755 8ad9 09f4 d73f b1ef f58e e079 c93f
000004e0: 563f 9bea 336f e0bf baee b8cd fa25 d6bf
000004f0: 71ff 9264 ff8d c7bf 2055 b9e4 e389 d4bf
00000500: 314f ad1f b9e2 cc3f e896 c290 ee31 c9bf
00000510: b531 41ab cce6 ac3f c991 dec2 727c b23f
00000520: ac66 b7b1 3457 ce3f a892 e9d6 5c4b d73f
00000530: 2671 1daf c346 c63f 67fb 387f b2ae c3bf
00000540: 887b 856f 499c c9bf ebaf 2965 9129 bebf
00000550: e474 e2e7 0c8d cb3f 7314 4158 3c58 d93f
00000560: 7fff f263 211c c7bf cc58 9ae1 9ba5 ebbf
00000570: 3301 c994 b3e8 c33f 1e2a d56e ae85 b53f
00000580: e823 b9d6 2ecd c63f 9ba1 1d70 89ce c5bf
00000590: b9ce e5aa c87f d23f e16d 21a6 8f78 88bf
000005a0: 0f2c c7cd 35d7 92bf d4ca 2aee 77be c43f
000005b0: 8a0b b152 2974 c03f fe6c 4466 7b1a c5bf
000005c0: d507 8c2a 2b67 de3f 15e6 3944 5fc9 b83f
000005d0: c9ae 31ce a64c d23f 6fbb 6616 2220 b3bf
000005e0: 74e8 fc6b f476 d9bf 40f5 61b9 5e8e ca3f
000005f0: 4501 bf19 9042 c13f 45ae 61a3 ab5c ce3f
00000600: ad9a 8ff0 0475 c53f a6ef d959 dee9 b73f
00000610: fef4 643a f344 cebf 9d0c aba2 d239 5a3f
00000620: 18e6 b571 78cc 923f 943b 8e6f 97d7 d23f
00000630: 6e7d 4df3 67a6 ccbf a264 65f4 4239 db3f
00000640: 1d2d d679 88b8 d1bf 9e94 29cc 64ac a8bf
00000650: 3157 9908 9af5 d83f f2a9 bfb4 0399 903f
00000660: cd51 6bea a5ce d3bf 37b5 9dcf c5fc cd3f
00000670: 46de 9a6c f34c b0bf 8768 8fbb fbca dabf
00000680: 64fa b602 7287 d9bf 83d8 c44a fb2b 993f
00000690: 2cd0 bcff 4ccd 9a3f c6d1 05fd 0463 b2bf
000006a0: 1136 5b24 8a1c d73f d6e9 5ddd 8e38 d6bf
000006b0: 757d 75c0 f106 c8bf 03e3 ffa8 0af3 ccbf
000006c0: c27b b4d1 4788 a13f 2ed2 6fcc 8841 c5bf
000006d0: 71dd 6619 72bb d33f 87c7 39ab b012 b73f
000006e0: 2162 c489 26d6 d4bf 707e 707e 63ef d03f
000006f0: 6000 35e7 710f d13f 1d4f 2ffd 5cb5 d13f
00000700: 48ce 8991 95db d5bf edc0 c95a 4a6e c33f
00000710: d71b 73a8 97e1 da3f 9df3 8807 4b6b d63f
00000720: ef62 e04d 541e c53f f620 9aee 8ff7 95bf
00000730: 2740 1267 e6c1 b5bf 6a64 99c8 cae7 cfbf
00000740: a875 1be4 ba20 d6bf 4e17 80a0 8bbc c6bf
00000750: 39bd cff9 0506 d1bf 148f 8631 d8d8 9f3f
00000760: 01bc 705d b0ac db3f f6e2 2b07 2731 e4bf
00000770: 57b0 266f ec76 a3bf c705 d6a9 8677 c73f
00000780: b7a1 ad58 6f77 d53f a619 260b 1b64 d33f
00000790: c085 e2bc 5456 78bf fdd2 3c71 e3e2 8dbf
000007a0: 0f3f 6109 7c88 9abf b329 0c44 686e 9e3f
000007b0: 02a9 9237 fc3e c93f 2787 daaa e4e6 af3f
000007c0: 9be5 34e1 3f57 aabf e31c bb39 fc2b bbbf
000007d0: 9cc1 2a8a dfed ac3f 0d45 f848 f786 cd3f
000007e0: 6d0e f4d1 66d7 dd3f 1162 38ee 60de d03f
000007f0: 3256 097a 9c32 d53f be3c 2576 e33a cb3f

mlp.net.0.bias f8 [2000]
0.907472334129975 -0.3156565191930714 0.7561446300142585 0.1274715434730726 -0.3329682465687322 -0.2944929411831363 -0.14785880389156936 0.15152450298124578
0.296159578940137 -0.2127598631834691 0.13660433689583945 0.23844079335934978 -0.6422164891785873 -0.06322565781889113 -0.3339096709280389 -0.2998620464751262
0.007361676769131381 0.45864372748610793 0.2372193721275364 0.25849281792933404 -0.6279715947901059 -0.24250505912610912 -0.5442558664995879 0.34501013914878115
-0.10989385195201053 -0.4706540418142067 -0.5900230730299468 0.4375755652315993 2.3620672971736605 -2.918814249228973 -0.7650730611653277 -0.018521778559116957
0.026272626796725637 0.3358810309220002 -0.15560062663603696 -0.1904186738315533 0.5335924726678596 0.21892921037950389 0.2396575377432488 1.2418331224524914
0.007523376420945232 0.17997457327689154 -0.4601913532974391 0.07509324326888887 -1.3505304133235276 -0.15946921515255696 0.031954073353780005 0.01760637186379378
0.0348943705717824 -0.18786241544020565 -0.19432713325631334 -0.2085598011208215 -0.49031498995544104 1.4204214796922578 -0.6277642856668522 -0.18067620824296035
-0.12034631090064601 -0.4502274014777953 -0.21401852659988846 0.26354946566567267 0.4310671010566026 0.3035933835534163 -0.19654506946186998 -0.00436982122702552
-0.7704399954919549 -0.12684098566950264 0.07787026558838256 -0.5184429245591814 0.4981859465165842 -0.2422549315774236 -0.364826515121329 0.138466956712918
0.5049109536169964 0.13678356324510263 -0.17491196136051376 -0.10216072339414278 0.3894596698472987 0.1609888573265335 -0.20242265904799833 0.09722988309170583
-1.5252646066523643 -0.0638244794080602 -0.08846518432291883 0.7694927044574501 -0.16436529389384572 -0.18144721676631384 -0.3889463306225585 -0.32760747318803884
0.0025512804481253528 0.4630724461588997 0.051597179840065954 -0.4072114349271385 0.5384280689942187 0.1487825040575892 -0.02478668146735404 -0.11728604318542953
0.19827050416791436 1.20543342366863 -0.03844882478490404 0.3147998334811393 0.1360632709175923 -0.15891474366586877 -0.25136219611543076 -0.49268150695024526
0.4412824753689486 1.0328992586922983 -0.18006840866975266 0.12325804354823919 -0.26969828630670634 -0.41306447286561604 -0.22724007213575712 0.4191025514821994
0.33807578270112076 0.49990341767322877 -0.6320998138719924 -0.08565813997788564 0.2625626031886532 -0.13242710750033165 -0.07243833641710436 0.24321247124726386
-0.2348037642971009 0.14963689680148815 -0.10078660975253192 -0.3461594703500661 -0.1315641744817226 -0.013473058220946616 0.1880878143186331 0.2986848200482305
0.14787311848750828 0.9637467095237323 -0.5258764096631755 -0.06813068496997776 -0.016592083409954543 -1.0220541983575964 0.09436110690983991 1.4140997724255777
-0.09212001033168898 -0.07219868285674097 0.2738595347967727 0.3366437346377463 0.14321073939116263 2.00238138571925 -0.1379891649014925 0.31299807136144464
0.15578557736326756 -0.2064734556500572 0.2735126098326944 -0.04007938883340118 -0.07734708388735902 -0.47454304551162374 0.15749387216064678 0.2357601455550747
0.26499784903801205 -0.3639716028203963 -0.7007689635888066 -0.1101455804159396 1.3216112215820799 -0.19376460037572854 -0.08437269291184114 0.008601993831098076
-0.1262981788992073 -0.23535558282736488 0.7496023056957201 0.15125588756404196 -0.35181234619743806 0.0814379573765229 -0.40262532851504895 0.5401089375284459
0.17913444177382953 -0.4481716938095464 0.21447120385093765 1.2192032626741123 -0.036062686808572844 0.10704580962866167 0.5194963766533737 0.2418793026530324
-0.0009518794558409603 -0.33031977046762667 -0.07587225409877715 0.11046092514429093 0.31668563874297573 0.8307347878894052 0.43136686531320745 0.07444576672601966
0.007928481639169115 -0.48907236549983923 -0.26919277427163657 0.32182703242393335 -0.07823256972550362 0.03320918437547304 0.6863020675239513 -0.2211932455223709
-0.8603373886875663 -0.17283834041468227 0.12923776417997737 -0.19167098968203664 -0.15969976185699553 0.24798035174602692 -0.026476389518325805 0.375268797131881
-0.41500316914213303 0.48756964457129975 0.2120566392727018 0.045812649144393355 -0.30141682274066334 0.15758612373899816 -0.2706774628820649 0.013631658882082348
-0.05274974087570172 -0.5698851847528668 0.025156043361437792 0.40071236307029406 0.6156425431962836 0.14427561610568668 0.024718004943960124 -0.09052989997888769
0.2131971317360964 -0.05826370309554875 0.5890748726180126 0.46478084619847126 0.13362959324523177 -0.37658975735751615 -0.3598323348203772 2.1827208261980453
-0.772337486038763 -0.17651576772938427 0.30344494897027185 -0.18320895647002267 0.28912593767880534 -0.2381525001694691 0.01220385251689576 -0.15683223231033924
0.5147136261692834 0.1740546836005277 0.8924568106391748 -0.16391331779174903 0.4194559136563121 0.042597822915077785 0.2144167272181541 0.05726246389025024
-0.23566855852117943 -0.7657882263366889 -1.145656127954989 0.33673977397415383 0.07507986954974491 -0.153604593499704 1.0071202205646481 0.24879699077629466
-0.24604837069662294 -0.28129005675536967 1.0846573209059118 -0.23550552736761055 -0.16110415377917137 -0.16687764561761428 -0.6413106739741095 0.2744966483825494
00000000: eb9d a36b 030a ed3f 2105 ad66 b733 d4bf
00000010: e0a1 1e39 5632 e83f 3e99 31cf fc50 c03f
00000020: 77a0 670c 5a4f d5bf f833 d2eb f8d8 d2bf
00000030: 78ea 918b 09ed c2bf f16d 6ca8 2765 c33f
00000040: 307b 7c4e 47f4 d23f a920 2317 b73b cbbf
00000050: 82cd ba3b 407c c13f a95e c158 3a85 ce3f
00000060: c42a 3f98 098d e4bf 49a8 9984 8e2f b0bf
00000070: 240f 1dab c65e d5bf f306 bb94 f030 d3bf
00000080: 206a 790f 4727 7e3f 2c60 8438 6b5a dd3f
00000090: 60f9 a152 345d ce3f c978 d075 258b d03f
000000a0: 5218 cee2 5718 e4bf e9d4 07e1 670a cfbf
000000b0: 2db3 6847 8b6a e1bf d7ac 1b68 a514 d63f
000000c0: 7154 2ae4 0022 bcbf 7d9f 5421 321f debf
000000d0: bf91 5111 78e1 e2bf 23b3 8cf1 3c01 dc3f
000000e0: f27e 028a 83e5 0240 404c fc48 bb59 07c0
000000f0: 9d2e 1880 7a7b e8bf 7e5d b384 5ff7 92bf
00000100: 6ce0 7c23 36e7 9a3f 4908 ca26 137f d53f
00000110: fec6 51a9 b8ea c3bf 3cbd 539c a35f c8bf
00000120: e401 7085 3013 e13f 950a 5c53 df05 cc3f
00000130: 0f6f 6c23 19ad ce3f 445e 8068 8cde f33f
00000140: ec70 effa d4d0 7e3f a6fb 2a25 6809 c73f
00000150: 7c20 146f c673 ddbf 1f8e fd8f 4f39 b33f
00000160: 89a5 57c7 c59b f5bf 4846 e6bb 7c69 c4bf
00000170: a493 0ec8 485c a03f 03c2 6c9d 6707 923f
00000180: e732 d7c8 acdd a13f bc4b 3b29 e00b c8bf
00000190: acd8 0725 b6df c8bf 247f 896a 16b2 cabf
000001a0: 5338 a61f 5261 dfbf dd06 9ddf 0bba f63f
000001b0: 5a26 9120 a516 e4bf 73ce c8e2 6520 c7bf
000001c0: b434 830d 04cf bebf 660d 4797 86d0 dcbf
000001d0: 4208 3e86 f564 cbbf c363 fa93 fedd d03f
000001e0: 4edb 5a77 9a96 db3f c735 69f1 126e d33f
000001f0: 0faf c38a 6328 c9bf d1ab 26f4 16e6 71bf
00000200: fd62 05c7 71a7 e8bf f417 9f4e 533c c0bf
00000210: 946e 0844 4eef b33f 7f60 ba9d 1597 e0bf
00000220: ea64 e74e 47e2 df3f 6fba 35a8 3502 cfbf
00000230: 7839 ca4f 5159 d7bf 014e 5405 49b9 c13f
00000240: 66ab 2504 3b28 e03f e74f 62b1 1f82 c13f
00000250: e37e dce0 8363 c6bf 1cde e985 3427 babf
00000260: 0bba 4640 e8ec d83f 9272 9e6a 489b c43f
00000270: 324e 4a56 fce8 c9bf b4a1 12c0 0ee4 b83f
00000280: 6217 35dc 7b67 f8bf 7de9 bd13 cd56 b0bf
00000290: 7865 8081 a7a5 b6bf 8ff8 042a af9f e83f
000002a0: 2d8d ef04 ec09 c5bf c513 fb92 a939 c7bf
000002b0: f113 7b26 7fe4 d8bf 0624 d155 85f7 d4bf
000002c0: f1cd cd42 6ce6 643f b398 fb9c faa2 dd3f
000002d0: 3034 f50f f26a aa3f 486f e48c c00f dabf
000002e0: e683 7280 cd3a e13f 8079 921a 4e0b c33f
000002f0: b557 1d09 ae61 99bf c537 c247 7506 bebf
00000300: dcd0 9489 ed60 c93f df97 c28e 7449 f33f
00000310: eaa5 0a7a 90af a3bf 859d 6533 ae25 d43f
00000320: 7c90 6371 856a c13f 24d5 727d 5157 c4bf
00000330: 8e0e f176 5116 d0bf cc7f ec03 1888 dfbf
00000340: dc7b 00da f83d dc3f 4856 825f c186 f03f
00000350: c2c1 234b 7b0c c7bf a635 02d2 d68d bf3f
00000360: 005f de99 bc42 d1bf 2b3a 86f8 a56f dabf
00000370: 03f6 14e3 3316 cdbf 2551 1282 93d2 da3f
00000380: b156 919b 08a3 d53f 5a2b 84e7 6afe df3f
00000390: a269 8c63 293a e4bf 7959 d71d b1ed b5bf
000003a0: d843 7660 d3cd d03f b2ad e817 5ff3 c0bf
000003b0: 1d5b e39d 518b b2bf 5840 fe14 9621 cf3f
000003c0: 6b1e 51bc 0c0e cebf dbc6 0445 4d27 c33f
000003d0: e607 c3b8 26cd b9bf 78ab 160d 7a27 d6bf
000003e0: c7b3 5c49 18d7 c0bf 1712 7d43 c397 8bbf
000003f0: b927 a3f1 4213 c83f 8acd 7aef a61d d33f
00000400: bc41 ee9f 81ed c23f 7d06 e156 03d7 ee3f
00000410: 37b8 a7c3 fad3 e0bf 88d5 cc37 0371 b1bf
00000420: de18 79de 83fd 90bf 4af7 ca80 555a f0bf
00000430: e92e 31ac 0c28 b83f 1795 3d15 27a0 f63f
00000440: 8c89 ae4f 2d95 b7bf 3419 afe5 9c7b b2bf
00000450: 2c98 6924 ea86 d13f f908 ab29 928b d53f
00000460: aa7d 0fc1 ba54 c23f 4844 2e88 e004 0040
00000470: 3c25 3a03 a1a9 c1bf b857 0d10 2908 d43f
00000480: eb5a fb23 c8f0 c33f 422a c1e1 b86d cabf
00000490: 199a 9108 3b81 d13f d9f5 9020 4985 a4bf
000004a0: 89b7 bcbb 04cd b3bf 0411 41cb e95e debf
000004b0: 8b0c 205b c228 c43f c3fb 6d71 632d ce3f
000004c0: 183b c889 b9f5 d03f cc52 b28c 4f4b d7bf
000004d0: bc4d 9508 b36c e6bf 4976 af31 8032 bcbf
000004e0: d98b ebce 5125 f53f e13d de46 47cd c8bf
000004f0: d157 bbe4 7299 b5bf 4dcc 7a11 ec9d 813f
00000500: 524e f5e9 892a c0bf b357 96b9 2120 cebf
00000510: 9b04 7ff9 bdfc e73f 281f 3559 5a5c c33f
00000520: 48cf 4fee 1784 d6bf 2ed0 9533 1ed9 b43f
00000530: 68db a006 9dc4 d9bf 8fc8 de89 9248 e13f
00000540: 84be 809c e0ed c63f 55ea f953 d8ae dcbf
00000550: 849c 3cdb ca73 cb3f f9c9 c547 db81 f33f
00000560: 72bd e5f8 ce76 a2bf dc68 87ab 5a67 bb3f
00000570: 51bc 83dd b69f e03f 01ae 3ca7 e6f5 ce3f
00000580: d617 f890 f130 4fbf 1d5d d888 f523 d5bf
00000590: 462e 0732 5d6c b3bf ce0a fbcc 2a47 bc3f
000005a0: 94e4 60d7 9344 d43f c34d 341f 6195 ea3f
000005b0: f049 c6c4 839b db3f 50f5 69b5 e00e b33f
000005c0: ecff c6ca ce3c 803f 2cbf cc2d f64c dfbf
000005d0: 723c 7454 743a d1bf 8bb0 ce68 d098 d43f
000005e0: e7fc 73b8 0c07 b4bf 4f94 a351 cb00 a13f
000005f0: 6829 e6c0 2ff6 e53f e2ad ce6d 0f50 ccbf
00000600: 6a0d 7e46 e287 ebbf 90b9 c915 911f c6bf
00000610: 31d4 47f1 dc8a c03f d35d 23cc ac88 c8bf
00000620: 9069 2db3 0a71 c4bf 9b5e 66f6 d1bd cf3f
00000630: 0db4 636c a01c 9bbf 0601 b96a 6704 d83f
00000640: 95ea cc73 698f dabf 5b30 7d4f 5734 df3f
00000650: dcb7 4905 ac24 cb3f 26f7 a26b c174 a73f
00000660: 09aa 08c9 694a d3bf 8896 e137 c82b c43f
00000670: 2bef b590 c752 d1bf e3cd b548 eaea 8b3f
00000680: 9002 de97 0302 abbf a2a1 dfda 7f3c e2bf
00000690: d2f3 227e 81c2 993f bd58 9f77 45a5 d93f
000006a0: dfbc a1fd 57b3 e33f da5f 6496 9f77 c23f
000006b0: 393c 6d3b ad4f 993f 6e2f b8af f72c b7bf
000006c0: 322a 342a 0b4a cb3f 52b0 ad76 bdd4 adbf
000006d0: 7845 198c b3d9 e23f 6cb2 8e29 f8be dd3f
000006e0: 060e 6246 c61a c13f 9dfb f6ec 0b1a d8bf
000006f0: a932 8633 7e07 d7bf b58c 2656 3676 0140
00000700: ed5c 801a fdb6 e8bf 0022 d094 1198 c6bf
00000710: 5ead fd5c a46b d33f 9cbf 2f1e 6473 c7bf
00000720: 145f b013 0a81 d23f e820 d8f7 c77b cebf
00000730: 1eec 8f5b 55fe 883f 77a4 5d1e 1413 c4bf
00000740: 0b7c e6b5 8878 e03f 91d3 e382 6c47 c63f
00000750: 0235 d995 018f ec3f 75af a591 1cfb c4bf
00000760: 5821 d19d 5dd8 da3f 5624 9ac0 61cf a53f
00000770: 8104 8fdf 0172 cb3f efdd 6473 8151 ad3f
00000780: 6d9f c527 632a cebf c2e4 784f 5681 e8bf
00000790: 6e75 2085 9b54 f2bf a1cf 1efb 248d d53f
000007a0: 8ad9 4d30 6f38 b33f 7c5d ccb8 50a9 c3bf
000007b0: 9172 a717 2a1d f03f 6b1b 5d6d 94d8 cf3f
000007c0: 6623 b054 837e cfbf 3213 9d02 a800 d2bf
000007d0: a186 8aa2 c15a f13f 781a 098d 0b25 cebf
000007e0: 1a9b dd97 0f9f c4bf 8b39 2e27 3f5c c5bf
000007f0: b26c 69f6 9d85 e4bf ce89 ea63 5a91 d13f

mlp.net.2.weight f8 [21, 2000]
0.009612362014778037 0.018080407176712634 -0.0030524143840936543 0.00396939471496762 0.008777063765236385 -0.042568144330498325 -0.007443125638293635 -0.03365151741370318
0.014241691704587481 -0.006588122694789174 0.012577615942144868 -0.048868046551205815 0.0030444232459300637 -0.008358436049990562 -0.01315696034111849 -0.03086164197726682
0.006379748239032466 -0.00761477355443695 -0.010495528824183614 -0.020079498568243214 0.004303949214526964 -0.003580616585429759 -0.027682653673517618 -0.011301718667684394
0.0002580370773492564 0.024883575011420134 -0.030985447300615473 -0.009184940869871027 0.012608996927855743 -0.0011173318589979408 -0.0010021682822344824 0.0036130361547296722
-0.0456269765520553 0.012906622631750329 0.0002747593813547002 0.005730302306493352 0.02340779678720912 0.005499279776353506 0.01679405890239137 0.002018561859120377
-0.0031532353054975564 0.11313060367627477 0.022795739811723705 0.020243233627530634 0.03787338570455254 -0.0072398993862617415 0.012527793023902056 -0.004109081374181756
-0.05826316205667714 -0.024475435576671565 0.00887750493613118 -0.005840050921336975 0.018169374990561434 0.004462678967340898 -0.0040310139591251595 -0.005435339691461492
0.03726138784319806 0.0223779692807393 -0.06454832325438921 -0.019633580376372906 -0.005252403691113869 -0.002052711324868489 0.014888801284069712 -0.008851760328502455
0.003816248175653297 0.020161593562790635 -0.031129209332887302 -0.009114539235037833 0.004734398469124217 -0.013279605187952294 -0.009876063293964064 0.018363875998971126
0.004139072660200131 0.0022674663334489426 -0.034462066893003476 -0.014553564897037087 -0.02948353407719158 -0.010484403865362686 0.0034578133695035472 -0.011050655811220467
0.01749157133149542 0.0023201034493133374 0.014442272828428996 0.009086547535255417 0.012180422756946132 -0.04866763627472023 -0.014323870435865124 -0.005299726782366327
0.010298411954373322 -0.02615940997569712 0.031147346359761543 0.013392668654451146 -0.016732927292097903 0.011077694519205691 -0.017173568200164777 0.00734199121996423
0.020854125165382122 -0.014168423447330523 0.024149825677603255 -0.002405916319768549 0.024055305340781617 -0.029440714513315272 -0.025006987214839547 -0.01731578659546267
-0.009002770649338009 -0.011387006501558905 -0.013680847703594104 -0.05400245811931753 -0.013520994349690797 0.0018593110744366621 0.01441590493975305 0.001912644582864238
-0.07926053238472537 -0.0038224202032770757 -0.0020129503095228304 -0.021196612822650736 -0.006444951378213491 0.026703361541273906 -0.010422379077821899 0.02726401945531704
0.015685820416434508 -0.012756823507844154 0.013658263844977852 -0.01126940815763686 0.018033313703602696 -0.03233386606514671 -0.03643727570917965 -0.02313705301077429
0.016444374410233324 -0.03669609741083043 -0.0033845106904200773 0.015686454399227775 0.013303320721297982 -0.004454431095594822 0.03307355531611592 -0.00939932997337291
-0.007720516051738367 0.015392301498245395 -0.015499748053325687 -0.01860164228201538 -0.016809968051659303 -0.008120574672356844 -0.011449400400035642 -0.016729100372218444
0.004354277371136345 -0.02003621402446799 -0.01213383545552308 0.01782593353365942 0.0007397015710126943 0.027682853949041335 -0.005356119796678269 0.017422392954088897
0.012529533383810786 -0.013262409160529077 0.00706614014483793 0.01579757206067037 0.0065695415391108765 0.0049335471936715015 -0.02436788292385283 0.001576618804747115
-0.0810748093285965 -0.001141015329156008 0.01098940322022383 0.03770859354281724 -0.004486792824676668 0.013253122205402965 0.03080496401828043 0.03326676430629941
-0.007393296635984113 0.03012928598262268 0.05828135276232115 0.009567765783792856 -0.013349110482379193 0.008865587731567396 -0.010298652564403063 -0.005394002925474262
-0.009845187471763366 -0.01648859921206286 0.03373895453594894 -0.002836993917383415 -0.01819382959513543 0.0009891675642940301 0.054661601115886256 -0.003309082783516545
0.054317280286529025 0.01874568038706561 0.013786796299285427 -0.027009345180398724 -0.027349096646734083 0.014441993766944914 -0.020601352049996365 0.04347948177354549
-0.0066860271570983515 -0.0009665436777393486 -0.007873584800011798 -0.013318012081793807 -0.028765790525598377 0.004223924765333062 -0.029247907050215047 0.02058864281605237
-0.07659994882558957 0.008191821538230745 0.061582714864127815 0.010081173429562761 0.013226494397734576 0.05133302197176706 0.0018537515050953308 -0.001428918070205109
0.01761526093715143 -0.00858672831636758 0.07492141743883189 -0.011916636605438357 -0.039042057884621624 0.022599787839290102 -0.0103249217772687 -0.005151919679700422
-0.04738422781253943 0.01170041254603013 0.006810686539958345 0.010205287094917179 0.006417380754661057 -0.0016706488222905814 -0.02022951995077557 -0.04520729278562505
0.007062887462014556 0.0035832440659776324 0.012022369379349121 0.007209229503204821 -0.01204952323892663 0.01045873164463977 -0.00013665120714064923 -0.0210460898851879
-0.0032621952324285585 0.01349509296415421 -0.013973165634469627 0.0089392250564888 0.013277559531298022 -0.00454558162787693 -0.01927206951283904 0.010272461634462436
-0.0002750383096582189 -0.0277816062562044 0.005267457684261412 -0.020254574429700106 -0.005209300379642913 -0.0010818477741532607 -0.008124091943335012 -0.011781544118622539
-0.01377757678088379 -0.0223586062265262 -0.02476033668190638 -0.01733648539745196 -0.0030956787293667325 -0.017460715747032278 -0.0015125837993112661 -0.006655847520001251
00000000: 5720 ed63 a5af 833f 77e1 1696 ab83 923f
00000010: 0c41 837e 6001 69bf 976e c547 3642 703f
00000020: d5de 9c8e b5f9 813f b875 80e7 7dcb a5bf
00000030: 00d3 24d3 ae7c 7ebf ad58 818d c53a a1bf
00000040: d528 e380 bf2a 8d3f a22b 42b8 25fc 7abf
00000050: 6bb6 1009 4bc2 893f d27f 838b 3b05 a9bf
00000060: 6cb1 d848 9ef0 683f cfe4 d74b 3a1e 81bf
00000070: d0fa 0953 09f2 8abf 210f f9bb 319a 9fbf
00000080: 3198 b1a0 a621 7a3f f5c0 1f36 ab30 7fbf
00000090: d0c8 6e08 ae7e 85bf a3c7 ae56 b88f 94bf
000000a0: 2dad eb91 04a1 713f 2934 49e4 1855 6dbf
000000b0: 1cea c670 d758 9cbf cfc6 8700 5b25 87bf
000000c0: 215e f1ce 24e9 303f 60c5 8673 147b 993f
000000d0: ff77 3b2b a6ba 9fbf 99dd 36e5 8dcf 82bf
000000e0: 6d27 86eb bed2 893f 3d61 c3f2 6d4e 52bf
000000f0: fb86 d3ff 656b 50bf 5d69 f603 1699 6d3f
00000100: d37e 3648 6b5c a7bf 3269 d790 c96e 8a3f
00000110: 37d9 a38e b201 323f c193 0a50 a878 773f
00000120: d29d b0a6 36f8 973f c1e7 a7ac 6986 763f
00000130: fcef 0237 7632 913f a79d 6f25 3b89 603f
00000140: 9344 7050 d0d4 69bf e561 f792 20f6 bc3f
00000150: 6afc ea33 c457 973f 3706 9569 a4ba 943f
00000160: 3ccd faf1 2364 a33f 43f8 71b1 95a7 7dbf
00000170: 0036 a1ea 2ba8 893f 0140 e621 afd4 70bf
00000180: c0a0 304f abd4 adbf 29bb 6dad 1610 99bf
00000190: 1052 f78a 5e2e 823f ec05 6dbb bceb 77bf
000001a0: d22d 7e1d fe9a 923f 9ef6 7943 7547 723f
000001b0: 5691 fc11 d382 70bf 0bca 7ae3 5d43 76bf
000001c0: ca55 61b4 ec13 a33f 7bbf d818 40ea 963f
000001d0: 19a5 6329 3d86 b0bf 6dc9 7a46 d31a 94bf
000001e0: d773 4261 8b83 75bf d921 4500 d9d0 60bf
000001f0: dcd8 bb14 057e 8e3f 4ccc fb28 df20 82bf
00000200: 0c83 73a3 4043 6f3f d320 f3a3 3da5 943f
00000210: 5bee 23e0 55e0 9fbf 13f5 75bf a4aa 82bf
00000220: 453b 7569 6064 733f a16c e36f 5632 8bbf
00000230: ffeb e2c6 e639 84bf 179f 5fdb facd 923f
00000240: b898 61db 21f4 703f 9bf7 e6b7 3893 623f
00000250: 721a 8414 03a5 a1bf 4714 2f6a 42ce 8dbf
00000260: 5535 877a ee30 9ebf 9720 c2dd d878 85bf
00000270: ca59 ce6a 8f53 6c3f 0de6 77ea b9a1 86bf
00000280: ce35 4c7b 4fe9 913f 1939 050e 9c01 633f
00000290: eff7 d20b e993 8d3f 4cd2 fac3 f79b 823f
000002a0: dbea 23ab 0cf2 883f 1cdb 58e4 f6ea a8bf
000002b0: b8ec 9758 d555 8dbf 6ef6 5393 2ab5 75bf
000002c0: c7af 5b74 5517 853f 6527 5049 88c9 9abf
000002d0: 77b2 e307 17e5 9f3f 5a29 048f 9d6d 8b3f
000002e0: 6e91 f1bd 6f22 91bf 7889 66fd e6af 863f
000002f0: f9f0 19a7 f295 91bf 5c14 d6c2 a212 7e3f
00000300: 27bc 49a6 c85a 953f 92c0 bc9a 5504 8dbf
00000310: 1d27 f55d bbba 983f 7754 217d 92b5 63bf
00000320: e690 ef36 f4a1 983f f4b1 05e8 b425 9ebf
00000330: 8972 0981 6e9b 99bf 2d32 87c4 3abb 91bf
00000340: 592e 196c 0b70 82bf 0d33 3024 1252 87bf
00000350: 7579 bf4b b404 8cbf 285a 0dcf 35a6 abbf
00000360: 07a1 5424 e5b0 8bbf 27bb 7f10 8476 5e3f
00000370: 2a60 1102 1686 8d3f 525e aa7b 3656 5f3f
00000380: c5b8 7412 6b4a b4bf 30f8 7738 3250 6fbf
00000390: b094 ee77 767d 60bf a2e1 6f9b 90b4 95bf
000003a0: 3ebf 4c76 0566 7abf 3359 0d42 2058 9b3f
000003b0: 613c 490a 5458 85bf f220 ac5f 19eb 9b3f
000003c0: be4d cc96 f10f 903f 0fe3 22de 3f20 8abf
000003d0: 1649 4624 ddf8 8b3f b2cd db5b 6a14 87bf
000003e0: 17c6 6132 5377 923f 4829 9b82 108e a0bf
000003f0: 3072 0d17 e8a7 a2bf a043 0758 3db1 97bf
00000400: ee36 2e49 cbd6 903f eb6a 8ab4 d4c9 a2bf
00000410: a45e 4e57 d5b9 6bbf 9f1d 8a22 1c10 903f
00000420: e5cd 687b c53e 8b3f 64bc 0b3e cf3e 72bf
00000430: a5ec e35c 04ef a03f 4937 b8b6 f43f 83bf
00000440: d814 353f 8c9f 7fbf 2570 5cbc ff85 8f3f
00000450: 11d7 e1f7 54be 8fbf ef38 0315 4f0c 93bf
00000460: b25e 1ddc a136 91bf 49d6 2315 85a1 80bf
00000470: 1038 3782 c872 87bf a7f1 f5eb 6e21 91bf
00000480: 6d05 826e cad5 713f 630b e28f 5f84 94bf
00000490: 54f2 a6d3 9fd9 88bf f3e1 3026 f640 923f
000004a0: 20d1 3407 113d 483f 9bfb 7be1 e458 9c3f
000004b0: fd57 c375 4cf0 75bf 47d0 d2ff 2cd7 913f
000004c0: 39dc f080 15a9 893f e798 e26c 5229 8bbf
000004d0: cee7 4b8d 62f1 7c3f 6958 6d1d 3d2d 903f
000004e0: bd8e f6e0 a9e8 7a3f bbf9 99fd 3235 743f
000004f0: df3d ecf0 e4f3 98bf b2f1 188d d1d4 593f
00000500: 9383 9896 51c1 b4bf 162c 78e1 c3b1 52bf
00000510: 16a4 77bb 9c81 863f 27d0 1670 8a4e a33f
00000520: 7576 2247 be60 72bf 386a 89f3 7324 8b3f
00000530: 5248 0d24 568b 9f3f 0485 7a61 5708 a13f
00000540: 98c9 2df4 6e48 7ebf a7ed c927 36da 9e3f
00000550: bf5f 29b0 0dd7 ad3f d8f0 18c9 4398 833f
00000560: 42bd 9e47 c756 8bbf af69 ef0a 1f28 823f
00000570: ebe3 a7bf 7517 85bf 4011 8da2 0518 76bf
00000580: 16b5 b6b1 b629 84bf f09a 7d29 63e2 90bf
00000590: 3890 aa74 3b46 a13f 9ff8 0283 9b3d 67bf
000005a0: 8e81 663c 67a1 92bf 4da6 b095 de34 503f
000005b0: 818a 47fa 9afc ab3f 79fe b74a a61b 6bbf
000005c0: dd69 e07c 79cf ab3f c69a d050 1132 933f
000005d0: 64bf c679 403c 8c3f 33db f178 56a8 9bbf
000005e0: d303 b1ce 6601 9cbf 1232 5897 c393 8d3f
000005f0: 0283 3b55 8518 95bf 3860 8750 f142 a63f
00000600: 27b1 adbf ce62 7bbf eac1 36be f4ab 4fbf
00000610: 9125 bfa9 0620 80bf 2d59 b652 7946 8bbf
00000620: a641 3486 c774 9dbf fd5a a52b 1b4d 713f
00000630: d94a 07d1 29f3 9dbf 6c81 416e 3015 953f
00000640: 44c8 14e3 0d9c b3bf cb9a cfac dfc6 803f
00000650: b13e ae04 c587 af3f 1972 7b31 70a5 843f
00000660: b22f 0807 7e16 8b3f 74ad 2565 5248 aa3f
00000670: 5003 b785 325f 5e3f ca1a 5518 5169 57bf
00000680: 4fd3 8a26 bc09 923f 5c32 632a eb95 81bf
00000690: 8b74 abcd 0c2e b33f e648 fde3 bf67 88bf
000006a0: e9e3 9013 52fd a3bf cb47 aa16 6624 973f
000006b0: 6be0 ef8a 3b25 85bf 8c2d 93e8 2d1a 75bf
000006c0: e925 9ad9 be42 a8bf 2f17 e1c9 62f6 873f
000006d0: a825 3dbf 85e5 7b3f f83a 8d72 82e6 843f
000006e0: 21da 7987 1c49 7a3f 487b 8283 355f 5bbf
000006f0: 38d1 681a 0cb7 94bf 3c23 1c08 6925 a7bf
00000700: 8188 a26a f9ed 7c3f d074 7682 9b5a 6d3f
00000710: 9519 701a 2f9f 883f 9e45 21cf 6c87 7d3f
00000720: 0ddb f2a1 6bad 88bf d78f f832 636b 853f
00000730: 67cb 66ee 40e9 21bf 8cee 0f2f 1b8d 95bf
00000740: 212e c4ba 51b9 6abf 8d0b 80b7 50a3 8b3f
00000750: d183 5f8b f69d 8cbf fb53 277a ba4e 823f
00000760: ad33 a9df 4331 8b3f b7b0 ed46 639e 72bf
00000770: 0db2 22b1 0ebc 93bf 5fcb 2776 ba09 853f
00000780: da95 8d8b 6006 32bf fef6 3309 c872 9cbf
00000790: 8d9d ca67 5493 753f 5870 147b 9dbd 94bf
000007a0: ceec 3fec 5856 75bf e790 ca33 99b9 51bf
000007b0: 9b8b a629 5da3 80bf c3a6 7c15 ec20 88bf
000007c0: 5144 890d 6b37 8cbf c3b8 1baa 2ce5 96bf
000007d0: 669e 2511 c65a 99bf ac11 3dd7 a7c0 91bf
000007e0: 9385 d9dc 1b5c 69bf 2e9d 64cc 38e1 91bf
000007f0: 7803 d57c 3cc8 58bf 7920 cf76 2943 7bbf

mlp.net.2.bias f8 [21]
0.008063121430818224 -0.005226474323807099 0.014860502045823365 -0.008951429229726188 0.021581766232209747 0.004125555632325053 -0.029862109078792488 0.013791363659957312
0.0345619699210854 0.017516025044109197 -0.011392528832541613 -0.0008387274561304508 -0.011850168271422084 -0.007378396423690716 0.027853041238469173 -0.02351625738518721
-0.016504399508506063 0.03075897690829434 0.004694521278347411 -0.024476245170028547 -0.03283914246432337
00000000: 02d6 cad6 6583 803f 1ec7 b404 5b68 75bf
00000010: 4dc6 4fd2 2e6f 8e3f 1d62 5a7e 2055 82bf
00000020: 3e08 a1d0 8719 963f 5c73 4c68 f5e5 703f
00000030: bd30 8837 2c94 9ebf 6015 187f a53e 8c3f
00000040: d027 fe44 1bb2 a13f 9da7 e18a b8ef 913f
00000050: 0539 0956 f754 87bf 0574 467f c17b 4bbf
00000060: 163f 6ca9 e644 88bf 4f05 6335 cf38 7ebf
00000070: 357c daf4 8185 9c3f 7325 9351 a514 98bf
00000080: 6d40 8480 87e6 90bf 05a7 84ff 477f 9f3f
00000090: 4428 c6f5 8f3a 733f 5ef8 2202 4d10 99bf
000000a0: ac6e d3c5 4ad0 a0bf

readout.weight f8 [3, 27]
-0.01371857986958652 0.031455408097515514 -0.04475898127026944 -0.2673861041770967 0.18944056016230518 0.04612040900786148 -0.04333163975769128 0.032431167822293175
-0.0665597051168557 -0.03277448243283338 -0.025484587309113297 -0.04252531275824156 0.0177054410974493 0.028716561174913523 -0.03217444784009209 -0.0013983690642190832
-0.055052665125565746 -0.055499194148386555 -0.02954728317923135 -0.04502670766290741 -0.012971621014302598 0.009633361465785754 -0.009035632320946072 0.009232182601295755
0.0116470688182517 -0.00935844236041001 0.03302845573219439 -0.17097156484557996 -0.0776403174817891 -0.1160671727262313 -0.3663113768750238 0.11851739453035544
0.15414056720342048 -0.03232315017033051 -0.04516462586579204 -0.08674585486490435 0.060738743524607015 -0.10269860525366935 -0.053734031684650435 0.0063891887106467616
-0.046314451075568766 -0.043639382865139346 0.0041932987376354135 0.014317502235842716 -0.119470179242645 0.08258618593480063 0.05248252396768448 0.029654892863371758
0.03591774710214992 0.07328920303550644 -0.09780455562961743 0.06256442416514124 -0.06175493512585653 0.08852844644859462 0.027920283986334563 -0.11405690645232269
-0.0951827226893477 -0.011611864562609816 0.09920328353128519 0.10565893581446067 0.07030356177038266 0.03911776645726949 -0.004548568899206174 -0.10468050687651352
-0.0819182826945851 -0.039585294572824725 -0.040940333509881126 0.0810808169503511 0.15442657117252837 0.046536943920133474 0.017439062841321053 -0.005348890892155951
0.07455826148519688 -0.10004139118877503 0.16582148584042533 -0.033521460827695505 -0.20073805195620986 0.13517105749350075 -0.0063087629909922205 -0.07517929332798831
-0.20754380074520054
00000000: 1f79 199f 7c18 8cbf b850 1f5a ec1a a03f
00000010: 8f23 8431 a6ea a6bf 551c 369b da1c d1bf
00000020: 3d6d 3799 963f c83f 7bdb bb20 189d a73f
00000030: 615d 488f 902f a6bf b2ee 556a d19a a03f
00000040: 1753 b58c 0e0a b1bf 297b 6224 d1c7 a0bf
00000050: 61c5 2db4 a118 9abf d0fe 18b7 e0c5 a5bf
00000060: bc31 e609 6021 923f a63b 66cc df67 9d3f
00000070: 46e8 7a52 2b79 a0bf f8fd 8159 2fe9 56bf
00000080: 533c 8be8 dc2f acbf 90b2 a4ef 636a acbf
00000090: 3505 c39b a441 9ebf c2ac b799 bd0d a7bf
000000a0: 3da2 4280 dd90 8abf 029b 91e3 a7ba 833f
000000b0: c582 890a 4681 82bf f801 bf92 52e8 823f
000000c0: 7166 591d 6bda 873f 6523 09df 842a 83bf
000000d0: b210 6a12 1be9 a03f 0463 c76f 65e2 c5bf
000000e0: 8672 6f60 3ce0 b3bf a493 ff06 94b6 bdbf
000000f0: 6a2e f545 a571 d7bf 6dd7 83ed 2757 be3f
00000100: 0b13 90cb e0ba c33f a241 c5f1 a88c a0bf
00000110: 9d2e 0f5e d11f a7bf e654 b5f1 f934 b6bf
00000120: 899e 130a 2619 af3f 6fc9 e8ae 744a babf
00000130: 441d 89e9 0683 abbf 8994 f6c8 8c2b 7a3f
00000140: 124d 6719 87b6 a7bf ff60 72b4 e657 a6bf
00000150: 054c 0c0f fe2c 713f c024 e89e 7e52 8d3f
00000160: 66c5 b100 9995 bebf eafb b047 5e24 b53f
00000170: de00 1b48 fdde aa3f 42ea 0e2c da5d 9e3f
00000180: c3a9 4c9a cf63 a23f b7f9 2fca 14c3 b23f
00000190: a03a d427 b809 b9bf bcae aedb 3804 b03f
000001a0: 14dd 76c5 579e afbf ba2c 43de cca9 b63f
000001b0: b121 778a 2297 9c3f 007d 185b d532 bdbf
000001c0: f950 1819 e55d b8bf 1eff 5514 f6c7 87bf
000001d0: 1a35 6cea 6265 b93f 0470 dac9 760c bb3f
000001e0: a09a 980a 6aff b13f 9fc9 406f 3e07 a43f
000001f0: f4ad a62a 85a1 72bf 4f36 9079 57cc babf
00000200: 4723 1eb9 98f8 b4bf 9884 2f13 8644 a4bf
00000210: 8f48 06a3 21f6 a4bf 0a7d 2261 b6c1 b43f
00000220: f1e2 68f8 3fc4 c33f 59b1 62b8 b0d3 a73f
00000230: 0a32 4eb2 8bdb 913f fb16 3af7 b7e8 75bf
00000240: cbbc b90e 4016 b33f 14f2 6607 509c b9bf
00000250: 0c52 5471 a339 c53f 852d f093 b929 a1bf
00000260: 507a 1bd4 c8b1 c9bf ef70 a603 494d c13f
00000270: 57a9 97ab 37d7 79bf 161b 2e3e f33e b3bf
00000280: 2d16 5896 cb90 cabf
