Adaptive NVAR 25 runs/best_joint_model_0percent_noise.pth (torch, 451556 bytes, 5 tensors)

mlp.net.0.weight f8 [2000, 6]
0.47345596999424633 0.46960560027520054 -0.29349416941547657 0.13718139595643325 0.2720293587418657 0.24490589478934877 0.33334267117795835 0.24747785936469752
-0.0018050180056386977 0.31574992851064654 0.16754817413793147 -0.04341889444132089 -0.08674863901366124 0.07489617701687941 -0.174736594102002 0.4640486685623445
-0.19245748795804285 0.16169811194203604 0.24980446669354042 -0.42280456407326356 0.08327599158593521 0.051835161729495094 -0.42111032382433916 -0.22208862011272124
0.42663135535061414 0.4452120402907084 0.23450404896851185 -0.08071928859770469 -0.2894462570250396 0.0903254230641234 -0.1987285136292181 0.22634194754503717
-0.015165158975245103 0.37495412225521474 0.2684814072172979 0.17201049350020106 0.016639704502455256 0.2883768548228355 0.2235681218385639 0.45587657690785777
0.22419500673979184 -0.0027177391016972555 0.4289777487440335 0.22991859861954886 0.3985921401684844 0.1821408492715462 -0.2706010392177916 -0.14144390665085377
0.24172859838860491 0.1725680711635573 0.22542395902974383 -0.26947254927040076 -0.002029195610471098 -0.21436292106773186 0.3504449598894876 0.31324856462762507
0.04232628391380033 0.2964527461906035 0.27149599923480966 0.036811656085649486 -0.08229625383597725 -0.38549493614603664 -0.10137555922416036 0.12078260395472543
-0.3621555197432152 0.30086477828220237 0.0969274201494989 0.20285149542916714 -0.16675164076397386 0.45853959844779346 0.12424826282564323 0.28974043427549895
-0.21646797969310505 -0.15176407621648633 0.17795706035230785 -0.45916424533430245 0.1648972998846582 -0.21323331429264797 0.2772210199615561 0.15404152325784234
0.16410537957231008 0.05372324535018116 -0.3976362116410792 0.18054483759971499 -0.20443148779809095 0.37389042689964 -0.08893196285649622 0.30344582169604944
0.009281880692043694 0.2717811852164733 -0.16932771043175215 0.4014149515444268 -0.1848383027208982 -0.36365661633253293 0.007782401191781115 0.18303996500614506
-0.0691849702843024 -0.15157102234302164 0.0497317995166591 0.37067460416546827 -0.2939632313915204 0.019357392296387627 0.34651724429883124 -0.39220711518172957
-0.12495193500749342 -0.3935649705361977 -0.09332695239900463 0.20499916758847142 0.42379628844893447 0.05405083388908021 0.23825994860027266 -0.21928958047432615
-0.34433547909853984 -0.5948674031342038 -0.05706897110716747 0.39479294695564754 -0.04155329423958539 0.5123531009581078 0.3061009170393045 -0.11788539366193286
-0.0038276056735097844 -0.07954907349451022 -0.33867543207229006 -0.06053662724754492 0.4570938528012409 0.3378930609619489 -0.09129554915311058 -0.566128381781983
-0.1670616350218594 -0.016962594498589563 -0.02602842304240065 -0.22940066732660394 0.32535102358307516 -0.10391249719878037 -0.20447269313998456 0.39103208383904997
-0.13206755403998713 -0.21658655948942018 0.4441607311897946 -0.20393949486640092 -0.3164355067163347 -0.14490392692434265 0.32130933940741735 0.11050232592117216
-0.18811435452758601 0.2899712408400309 0.22265143701154952 0.1393010511688064 0.1383678578097414 -0.01708350821690504 0.49080823920609495 -0.08162562141567115
-0.1650947623867896 -0.13294987304685546 0.42143764923943255 0.1595892455315908 -0.0643112021918812 0.04072138437709426 -0.23203593989583102 -0.4636589023095218
-0.291116234529038 0.2781864035706044 -0.4231311564047958 0.0656987443049951 -0.14639009341817696 0.3062659836434841 0.13342228643507728 -0.304119909480687
0.3766062774886943 0.31105893731813866 -0.3161533360233632 0.18186915788134006 -0.30277145452172044 -0.2700255164951972 -0.39822908405591056 -0.19347165339923936
-0.3045566410701844 -0.34443246182932047 -0.3851741946682933 -0.2659204466906269 0.21122444873852958 0.23235158117379467 0.22133733675761635 -0.053591468686688015
0.30507189850018734 -0.08221768660209905 -0.3217045049262001 -0.25500138560676944 -0.27982801664050877 -0.2833292370237677 -0.28878948708440944 -0.31060898025621214
0.15298781520857457 0.119594697623044 0.06449445961724157 -0.08415148687652144 0.5469916933904717 -0.08282723340902431 0.06398304495809179 0.3682843970752273
-0.008485156293936723 0.3328285417996632 0.28453298875986544 -0.36014912706136676 -0.6168231216021176 0.3427239823590682 -0.06870027970433504 -0.48979491699530725
0.017672057050707873 0.30099391408432974 0.0871163342039202 -0.46396954177528715 0.1522293236149849 0.23631052199750224 -0.51363036757294 0.11405242135385758
-0.09804937573151469 -0.11098447616522736 0.09329556794050155 -0.10267669187519667 -0.33966975615059003 0.11901308392443473 -0.09968856545851872 0.35046768302452924
0.18042583151507177 0.18372421728583238 -0.20053286194174652 -0.21977775511189915 -0.22946058686073292 0.33276647562330397 0.03204327780214388 0.16873068983841633
0.450712272627227 -0.04087918853821257 0.13535078057890973 0.38425616402704565 -0.26339863609454855 -0.060609502871962 0.4390455632636149 0.15335237731730794
0.47217119322138706 -0.06977497889217864 -0.10162701724936858 0.286796430276455 -0.0026459516677102934 0.11393542138928074 0.10255297134778091 0.001208501501313027
-0.002819513161174906 -0.06466417605558962 -0.17825795767590666 -0.29215361027014564 -0.21264511415405665 -0.18282111931649256 0.05906613699794341 0.26040640219319855
00000000: e228 ce44 1a4d de3f edd3 cca5 040e de3f
00000010: a631 cdc4 9bc8 d2bf 2a52 a0f4 288f c13f
00000020: 5548 d6d3 ed68 d13f 28e3 5b8c 1359 cf3f
00000030: ec84 c47f 7c55 d53f 9e4c 3ac0 5aad cf3f
00000040: e6dd 6253 cb92 5dbf 62b9 2a30 3f35 d43f
00000050: 99a5 36f4 3772 c53f 75d2 4e57 003b a6bf
00000060: 6743 89a7 2835 b6bf 4d07 e256 652c b33f
00000070: 2f90 8aca c45d c6bf 3691 ce2f f9b2 dd3f
00000080: bc36 536c 72a2 c8bf d2d8 4e13 86b2 c43f
00000090: 11f7 6bbf 97f9 cf3f 3bd4 d2df 3a0f dbbf
000000a0: e64f 674c 9351 b53f 7075 d268 238a aa3f
000000b0: 2b58 35b7 78f3 dabf f854 1960 666d ccbf
000000c0: 6e75 ab99 ed4d db3f b260 35a4 5a7e dc3f
000000d0: 34b7 8c8a 3a04 ce3f a6fb aef0 04aa b4bf
000000e0: 65d1 f797 4986 d2bf 49ca 0e22 911f b73f
000000f0: b9fb 6899 ef6f c9bf ee9d 35df c5f8 cc3f
00000100: 17d4 b22e e90e 8fbf c289 2593 3fff d73f
00000110: 4545 e5a3 cc2e d13f c57a 139a 7004 c63f
00000120: 2ad3 9caa ff09 913f 76cb 1832 c474 d23f
00000130: 70c5 dc55 e19d cc3f 363a 35f3 142d dd3f
00000140: 23dc ef06 6cb2 cc3f f97b f211 8343 66bf
00000150: 1e4f 6416 5f74 db3f 1714 e8fe f86d cd3f
00000160: abd7 9d9b 8882 d93f c987 712f 6450 c73f
00000170: cd0e 6d05 8751 d1bf a256 a47c d51a c2bf
00000180: 0b22 4b74 f6f0 ce3f 8f9a fde6 b516 c63f
00000190: 8240 e239 b1da cc3f ca4f 92ca 093f d1bf
000001a0: f7d6 1719 889f 60bf 0200 bb83 3e70 cbbf
000001b0: 137f 71b2 b06d d63f cc0d 26b5 430c d43f
000001c0: 208b 576a caab a53f 89ac 6cf0 14f9 d23f
000001d0: 9555 6dc1 3060 d13f bcb9 ff35 fad8 a23f
000001e0: ee0f cf06 5e11 b5bf 5f55 e1f3 f2ab d8bf
000001f0: 4442 7ba7 bff3 b9bf ba48 e9d5 9beb be3f
00000200: 413b 5758 8e2d d7bf e661 cf57 5e41 d33f
00000210: 2cb4 a043 3cd0 b83f 480f 68ad 09f7 c93f
00000220: 9c5b d125 1e58 c5bf 8e45 d078 b658 dd3f
00000230: 65c3 6bf1 bbce bf3f dbb1 6276 1b8b d23f
00000240: c0df b406 39b5 cbbf db5a 0758 016d c3bf
00000250: 5419 2705 4cc7 c63f ae03 4d6e f262 ddbf
00000260: 1d06 1acf 5a1b c53f 8afd a6af 3a4b cbbf
00000270: d4e9 9f3b fdbd d13f 9329 4ff4 a1b7 c33f
00000280: ac2c 2eb3 6701 c53f 33c6 a0fb 9c81 ab3f
00000290: 900a 2d27 df72 d9bf 79e8 79de 171c c73f
000002a0: 34c6 2e9d cf2a cabf 5a92 f41c d2ed d73f
000002b0: 33a9 09c0 3ec4 b6bf 59b6 1206 a86b d33f
000002c0: b140 24f0 6002 833f 5410 8be9 dc64 d13f
000002d0: 1233 4ec9 87ac c5bf 298f 4056 c8b0 d93f
000002e0: 0101 9e10 c8a8 c7bf ebd2 8766 2646 d7bf
000002f0: 2219 a669 70e0 7f3f fcfb c783 da6d c73f
00000300: 72ed be30 1bb6 b1bf 2b06 fee3 ad66 c3bf
00000310: 4495 fd48 7276 a93f b44c 96f9 21b9 d73f
00000320: 5965 4328 4bd0 d2bf f532 659b 6cd2 933f
00000330: 8edd f0a9 562d d63f bab2 3ddf eb19 d9bf
00000340: 9dd9 6d9a d9fc bfbf 9177 5321 2b30 d9bf
00000350: 549a 6370 46e4 b7bf 6ef6 3fa8 693d ca3f
00000360: 927a c377 7a1f db3f c710 c007 8dac ab3f
00000370: eca7 974f 4d7f ce3f 3dd2 3e54 ae11 ccbf
00000380: 852a 65ad 9709 d6bf 0e5f 3d5d 2709 e3bf
00000390: 2116 0be9 2438 adbf 096c f7a2 4944 d93f
000003a0: aba4 992f 7946 a5bf f9d0 9354 3265 e03f
000003b0: 2b67 fd4c 2897 d33f 113f 74b6 bc2d bebf
000003c0: b917 1226 125b 6fbf 8705 16fd 535d b4bf
000003d0: cd62 2db8 dbac d5bf bd08 7a24 a8fe aebf
000003e0: 53f9 3e93 0641 dd3f 351f 9837 0aa0 d53f
000003f0: 5a0a e225 255f b7bf a1e9 a244 b91d e2bf
00000400: fee6 6a91 4662 c5bf 32cb 8172 a45e 91bf
00000410: 4d2b efe6 31a7 9abf 6596 ec45 005d cdbf
00000420: 8b9a 8019 8dd2 d43f d04c 1d69 029a babf
00000430: 220b fb44 292c cabf f8a0 f16e ab06 d93f
00000440: 5773 bbf0 96e7 c0bf d44e e1be 1bb9 cbbf
00000450: d82a a821 216d dc3f 932f 687a b01a cabf
00000460: 3cf3 28b6 7a40 d4bf f9db 993d 368c c2bf
00000470: c4de 290c 5590 d43f 419f f663 e149 bc3f
00000480: 2e54 4d94 2114 c8bf ee0f 0c89 e38e d23f
00000490: ff9d 2fa0 d77f cc3f d7c2 88e9 9dd4 c13f
000004a0: 2922 0eb8 09b6 c13f 96c6 5ed4 567e 91bf
000004b0: 6ad7 fff5 6669 df3f dcf8 7eae 6ae5 b4bf
000004c0: 7298 983e d321 c5bf 282e 5f5e 8004 c1bf
000004d0: b955 329e d5f8 da3f d7fd 2c9f 6b6d c43f
000004e0: 0d3a 2eee b276 b0bf 8e80 4bec 6ed9 a43f
000004f0: 1bb3 ac8a 5ab3 cdbf 3ecb 7a63 96ac ddbf
00000500: b6c2 a8fc a5a1 d2bf 42c4 6158 cecd d13f
00000510: 3658 abb3 9414 dbbf d79f 2d06 a2d1 b03f
00000520: 0f40 d81b e9bc c2bf f610 e8a3 dc99 d33f
00000530: ede9 6542 fb13 c13f cc0c 525a b376 d3bf
00000540: 4510 5237 511a d83f 1f3c babe 63e8 d33f
00000550: 1777 af33 db3b d4bf 682e a012 7d47 c73f
00000560: 2d52 d585 9b60 d3bf 1fac 9b1a 1948 d1bf
00000570: d383 15d7 957c d9bf 81c1 06dc adc3 c8bf
00000580: 7144 4b23 db7d d3bf 7936 cf73 2e0b d6bf
00000590: e242 57aa b1a6 d8bf ddee 7731 d704 d1bf
000005a0: 624b b919 6709 cb3f fa5c 2855 b2bd cd3f
000005b0: 58fc 6027 c854 cc3f b836 b54a 5770 abbf
000005c0: f629 bf48 4c86 d33f d8d9 1be3 370c b5bf
000005d0: d391 e87d ce96 d4bf 9c68 e754 f151 d0bf
000005e0: 116f fec4 b3e8 d1bf 3d22 c1f3 1022 d2bf
000005f0: 9c31 9de6 867b d2bf 7bd6 027d 04e1 d3bf
00000600: d6ef 80cf 1a95 c33f 42e4 1013 c29d be3f
00000610: 6a49 d47a b582 b03f f25f 0bac f38a b5bf
00000620: aa76 49b9 f480 e13f 30bd b562 2a34 b5bf
00000630: beef 975d 3161 b03f e62b 44b8 f891 d73f
00000640: ec70 4566 aa60 81bf 731d 8d15 104d d53f
00000650: 1ed5 56da c935 d23f 5356 9aec ae0c d7bf
00000660: c653 d6d7 03bd e3bf 805f f291 30ef d53f
00000670: 4261 8e6e 5796 b1bf f37a 8fc7 cc58 dfbf
00000680: 88e5 57ac 9f18 923f fa61 52fa 7b43 d33f
00000690: 2a6e 5a8e 414d b63f 2cf5 104e adb1 ddbf
000006a0: 6593 351f 407c c33f f408 d755 6c3f ce3f
000006b0: dfa9 def3 a86f e0bf fd92 be1b 8a32 bd3f
000006c0: 75fa 288e c319 b9bf ba4b 7e87 7a69 bcbf
000006d0: 198c 2ae5 37e2 b73f 2f5a aa09 0549 babf
000006e0: 62da 8637 26bd d5bf 9d65 4037 a477 be3f
000006f0: 43f3 6d98 3085 b9bf bc4b 3901 106e d63f
00000700: c9fc da92 3118 c73f 96e8 5c70 4684 c73f
00000710: 2613 e891 0fab c9bf 0905 4c6f ad21 ccbf
00000720: 21d7 24ea f65e cdbf 2477 80c2 0b4c d53f
00000730: 0f07 6ffc f967 a03f 9400 589d f798 c53f
00000740: e4be b549 78d8 dc3f cc9f b7f3 1dee a4bf
00000750: dd88 09a4 2c53 c13f ac15 722a a797 d83f
00000760: e792 f5f3 85db d0bf e2e3 5271 3508 afbf
00000770: b6f3 ea8f 5219 dc3f 7ebc abfa 0ca1 c33f
00000780: 25f2 3f86 0d38 de3f 7fc6 6be4 c5dc b1bf
00000790: 75df 796b 3a04 babf 1d67 296a df5a d23f
000007a0: d7c8 257c f6ac 65bf 9312 b92c df2a bd3f
000007b0: 34dd 0b5a e940 ba3f 2238 389b d2cc 533f
000007c0: 0823 2c9a f218 67bf d9ac 61d9 d48d b0bf
000007d0: 7721 3c21 28d1 c6bf d430 610e a5b2 d2bf
000007e0: f111 7981 f437 cbbf e7c0 3db4 ae66 c7bf
000007f0: 1319 6aad ea3d ae3f 12af 459d 7faa d03f

mlp.net.0.bias f8 [2000]
0.2506839389825629 0.05825657239924862 -0.375982469963811 0.13006302915606485 0.2983478356500716 0.1762705983015385 -0.17837241863430903 0.8032799908783661
-0.2970514304124727 0.32471980635660186 0.27361712130579985 0.2832130365261292 0.24816354416219666 0.05757450709613502 0.31404590801474835 0.02675512271549416
0.7355757708256666 0.10259415935623888 0.8570603343918342 -0.03886224284077529 -0.18009672651346875 0.5391981608252694 -0.062529742749464 0.3639979604658826
-0.4233360813576314 0.32102315614554544 0.12650975971815534 0.18367847852745714 -0.0455572093661194 0.24017224715996946 0.045159443461304516 -0.5030250330829912
-0.8252887113206123 0.3721974996988536 0.1357604673464969 -0.4523107082370361 -0.1812459650782573 0.43885795999016114 -0.2381123231759236 -0.06084544559312493
0.19918012056044943 0.3125097260620749 0.5208002138772817 -0.8488155269042386 -0.32357151559393105 -0.9406226364103022 -0.532906612600319 -0.6223705127489999
-0.9991133590934138 1.236871248316525 -0.08156575422449201 -0.5028888064452057 -0.1378946348321358 -0.20026271596730041 0.24845640509725475 0.38794504386129636
-0.5466150890384109 1.362628457057992 -1.4896183434630246 -0.038380726022581774 -0.046558916476527316 1.589700121986372 0.10719505864433884 -0.49700775322834756
-0.2289513298381198 0.03301548471130041 0.10368581916175298 -1.0214074337958117 -0.43130525760444755 -0.05277616952461089 0.3704631493715946 -0.09883097999693188
-0.17497849241354815 0.24098799170485005 -0.21612987611015133 0.26113171125561097 0.6225951464604409 0.117533241809782 -0.4868552571687367 0.6500154468175047
0.3605190733070384 -0.47207573932900615 -0.0033305218513507975 -1.0061312147758827 -0.31394396566787736 0.1254893049094516 0.15025474694942048 -0.16629087248728977
0.9039938113629822 -0.04854628623453218 -0.032461669214527415 -0.4873457986964157 0.9228544111335948 -0.009200697762903689 0.44981416873509517 0.47955613763793437
0.06177135424798433 -0.09433026913199924 0.7451341999045866 -0.17697971221157074 -0.9109493187247775 0.5536577657754745 -0.5458613876906878 0.7053537601595671
0.9016828720103606 -0.19932154759024434 -1.1531232119867383 -0.08573763152336279 0.092447333469264 -0.006684743245198882 -0.208535368097424 -0.45234926044334844
-0.0336117998472076 -0.4650344287529416 0.29855546138891714 0.02762347932074663 0.31990471223910444 -0.7799321451865164 -0.8937604526101826 0.10696246985655132
-0.22661674836343246 0.32786589642327496 -1.3630179622789462 0.20930014110200476 -0.9554910181557057 -0.24039502407148483 0.6290976492747176 -0.15383810599337638
0.01864394273207411 1.55533627578106 -0.2922977679487976 -0.1617444839819931 0.2592613064953343 1.1479600055010784 0.1381673321634992 0.17128943355768889
-0.4313181247422155 0.15152159748649197 0.5320022795719233 -0.49344615359821886 0.22167106812037451 -0.5328458684042078 0.6656200406626236 0.19467437558097636
0.11288752411981381 -0.23618988933640814 -0.4466487378110394 0.3013100922352284 0.2612888657726179 0.2652663798434395 0.19401700856066265 0.3431407019622926
0.5454102820275066 0.16639980233016852 0.2959874949979014 -0.9379281886602445 0.05243194990522748 0.16756791082803635 -0.06974214386496849 0.04361956382752829
-0.10815373720296119 0.5216032759060149 -0.3592031545075726 -0.22367893088546212 0.2961143328431294 0.24229430846195424 0.5147802365864974 -0.02039165572454022
-0.3399800815919565 0.6325766014689364 0.10365619725011335 0.4804809216401868 -0.024896032986404786 0.16338181452756254 0.18736715829997228 -0.11623736409900007
0.36322340185704216 0.4383856995712505 0.886156436818291 0.37464112076271006 -0.2660133135209028 0.8562157262590484 -0.15089302209428432 -0.07349579000052013
0.33012814586253586 -0.3003960099876902 0.37964349842425144 -0.12070224694928063 0.1177426635795331 -0.015740816284487678 0.05451692642083886 -0.6516828462252238
-0.08298582532270529 -0.3029565827723353 0.06697982138150425 0.2280793985066799 -0.02342732850106212 -0.527573152482204 0.3540914689111147 0.4035503504277927
-0.7748316125594221 -0.19343413198126996 -0.0253978648096641 0.24010659606497325 -0.07499218751513667 -1.571837787739504 -0.2433818761895883 -0.18127751640584347
0.35517581011041344 -0.06897917183123875 0.4105947163549586 -0.1859339213158632 0.7585801369172803 -0.031823999546190966 -0.2101282557103924 0.2093440057635311
-0.03998879429751333 0.40021959308018584 -0.03913176264239337 -0.1671061123417475 -0.3998191302718081 1.0984832027610505 0.22214237009425353 -0.22518629324788034
0.03127712161034455 -0.4833293138940536 -0.8962204391113764 -0.7423770551006283 0.08524868749440655 -0.38573683759784255 0.012485814782704049 0.1902887923738172
0.19376541068632233 -0.22583834219315502 -0.25581824736346276 0.38586632215932004 0.3534244400137985 -0.28675741995811016 0.12455781501610742 0.10935084167533127
-0.24575242889578924 0.21302112302653609 0.053068993566021586 -0.3188194219793998 -0.24158919726444633 0.0989732606337496 0.5495054441929799 0.17615572427412637
-0.07716661665765687 -0.19623915230261743 0.19027119911411605 0.14627891708945187 -0.01134335844743673 -0.008287015943397029 -0.2890748735600059 0.2904013500819954
00000000: 1a01 e4a5 340b d03f 4db2 7632 ced3 ad3f
00000010: a849 17c7 1810 d8bf 5d6e 52c4 e7a5 c03f
00000020: a2c3 3c85 2118 d33f 79c9 79f3 0890 c63f
00000030: c279 454c e8d4 c6bf 0252 4b3d 78b4 e93f
00000040: 7380 b600 e402 d3bf 4f90 2a95 35c8 d43f
00000050: b094 e862 f182 d13f 998e 6b92 2920 d23f
00000060: 1438 1eb1 d2c3 cf3f 3558 1fe2 677a ad3f
00000070: 076c 1702 5419 d43f d909 41e4 b165 9b3f
00000080: aba3 ed32 d689 e73f ab16 325f 9c43 ba3f
00000090: 122d 5dcb 096d eb3f 2ac6 197c c0e5 a3bf
000000a0: 00fa 3ed7 680d c7bf 28da 5980 1c41 e13f
000000b0: b1e0 2200 f301 b0bf 26bf 001a be4b d73f
000000c0: eb75 2938 f017 dbbf 2cd8 39b5 a48b d43f
000000d0: 3ba1 4ec8 7831 c03f 5d92 20c1 c682 c73f
000000e0: e025 a648 4653 a7bf 29bd 7ad5 f6bd ce3f
000000f0: c031 8b79 231f a73f fd24 45f4 c718 e0bf
00000100: 1529 1cdf c368 eabf cd02 3776 15d2 d73f
00000110: 7fe3 ab57 9960 c13f 048e e09c a8f2 dcbf
00000120: 6c83 455a 1133 c7bf 27cf 6fb2 3f16 dc3f
00000130: a557 68f0 767a cebf a7b4 dd5d 2227 afbf
00000140: 1405 e9f3 bb7e c93f 0196 47cb 2800 d43f
00000150: 9149 cb35 65aa e03f b880 0c2e 7f29 ebbf
00000160: 5a28 594d 65b5 d4bf 354e a8a4 9419 eebf
00000170: ac18 1e2b 920d e1bf f90d c890 75ea e3bf
00000180: 7eb1 4994 bcf8 efbf 5e1d 8e81 39ca f33f
00000190: fb25 de46 7ee1 b4bf bc9c 2644 aa17 e0bf
000001a0: ebed 7209 88a6 c1bf 4d06 d86b 35a2 c9bf
000001b0: 8ced 2f63 6bcd cf3f 34e4 0173 17d4 d83f
000001c0: 7c71 5ded de7d e1bf b79b 3a7f 53cd f53f
000001d0: 4d20 4b0b 7ad5 f7bf 8ca0 2076 a3a6 a3bf
000001e0: cf2f 35ff 91d6 a7bf 110f 2665 696f f93f
000001f0: ae94 2ba7 2271 bb3f 2659 7e9b f9ce dfbf
00000200: 3fe5 03f5 464e cdbf 9b78 31d6 67e7 a03f
00000210: b6d3 5b62 278b ba3f 70b5 4052 af57 f0bf
00000220: d740 005e 819a dbbf f792 3b64 7a05 abbf
00000230: 7725 bb11 abb5 d73f b61f ebb2 fc4c b9bf
00000240: 95b4 35fb b165 c6bf 37ef 8ccb b1d8 ce3f
00000250: e872 cace 24aa cbbf b6a5 f2c7 61b6 d03f
00000260: 0245 16a8 4cec e33f 4a10 c495 a816 be3f
00000270: a639 dbf3 a228 dfbf 793b bf31 edcc e43f
00000280: 7b07 5c97 be12 d73f 6ecc 6929 7d36 debf
00000290: 7ee9 c34d 9c48 6bbf 9a27 6f0b 1d19 f0bf
000002a0: 317c 546e a817 d4bf 26bc 4a96 0810 c03f
000002b0: d2b6 1b2c 8c3b c33f 4765 7af1 0449 c5bf
000002c0: 92e4 f26d 84ed ec3f 926b 700f 0fdb a8bf
000002d0: 3fc8 4cdf d09e a0bf 6a9f cf6e ac30 dfbf
000002e0: 5838 59f9 0588 ed3f ceb8 efbf d0d7 82bf
000002f0: 80a8 ff5d c1c9 dc3f 6e10 f039 0cb1 de3f
00000300: 2442 a6b4 7ea0 af3f 66df f14c 0726 b8bf
00000310: 1a15 77ad 23d8 e73f 3d89 006e 45a7 c6bf
00000320: 9690 872f 7f26 edbf b1d3 a57d 90b7 e13f
00000330: 57fb 084d b277 e1bf f9de 7f0c 4292 e63f
00000340: 35bb d409 96da ec3f f8e3 2454 5e83 c9bf
00000350: 40dd 3b53 3173 f2bf 59e9 6dc3 e6f2 b5bf
00000360: 5557 dae1 a0aa b73f 20b1 ec19 7661 7bbf
00000370: 40d5 0475 49b1 cabf 7e55 fe4f 4af3 dcbf
00000380: fbf7 34da 9035 a1bf dd81 c0c3 1fc3 ddbf
00000390: 2749 ad5d 881b d33f c829 2351 5449 9c3f
000003a0: c2ce 399d 5179 d43f 569b 1542 34f5 e8bf
000003b0: 9067 4d85 af99 ecbf 07eb ee75 e461 bb3f
000003c0: df30 7911 c701 cdbf eb25 a73d c1fb d43f
000003d0: 0394 3dec ebce f5bf e767 8ad6 58ca ca3f
000003e0: 4837 53e6 6193 eebf 640b 419f 43c5 cebf
000003f0: 3203 b464 9121 e43f 8660 0f91 f7b0 c3bf
00000400: 7505 36d1 6517 933f 8531 6c4a a8e2 f83f
00000410: 222b 82b2 01b5 d2bf 4a6a 8112 0bb4 c4bf
00000420: 1e01 21bc bc97 d03f c9e3 8b4f 0b5e f23f
00000430: 3447 8296 77af c13f f8eb a3e9 cfec c53f
00000440: bb26 fc55 b79a dbbf dccb eb48 0f65 c33f
00000450: 6015 05a5 2906 e13f 5ca5 022d 9f94 dfbf
00000460: 54f0 05b2 b75f cc3f 755a 53c7 120d e1bf
00000470: 3ca9 4666 c24c e53f 69a8 3e06 17eb c83f
00000480: 3694 3860 32e6 bc3f f340 2c65 783b cebf
00000490: 8ead 6c96 e495 dcbf 22b9 0620 aa48 d33f
000004a0: 5659 53ef f4b8 d03f 0afa 89d6 1ffa d03f
000004b0: d561 51a1 8cd5 c83f 9eb0 366b 04f6 d53f
000004c0: 98ba 8643 0074 e13f f9d2 88b6 964c c53f
000004d0: ed9e c288 75f1 d23f 435a 09fa 8103 eebf
000004e0: 6088 374c 5cd8 aa3f 68c7 6e84 dd72 c53f
000004f0: 3a8f 0d03 9fda b1bf ffc4 35b0 4d55 a63f
00000500: e915 3a9c f6af bbbf ed16 705a f9b0 e03f
00000510: 4bb9 4e3a 2ffd d6bf f188 7ade 82a1 ccbf
00000520: d209 dc87 89f3 d23f 89ee 6cf9 7f03 cf3f
00000530: 4b84 1867 1479 e03f b2f2 cad9 8ce1 94bf
00000540: b8a5 eed0 3bc2 d5bf d9c3 f048 113e e43f
00000550: d28a 3769 3689 ba3f 87fa 320d 33c0 de3f
00000560: 0b30 e87d 587e 99bf 3119 14ff b1e9 c43f
00000570: 3f15 9fa4 a5fb c73f 16e2 605d bbc1 bdbf
00000580: 0c8b 075e 0d3f d73f 9853 ace4 820e dc3f
00000590: 4cc8 68be 645b ec3f 7868 5ac0 1efa d73f
000005a0: 23dd 77b4 5c06 d1bf e24f d385 1e66 eb3f
000005b0: 9776 8b69 7650 c3bf ab27 72be 9ed0 b2bf
000005c0: 55ff 7dcd d120 d53f c6be af2f b039 d3bf
000005d0: 89c1 773e 144c d83f 9d6c 33ab 57e6 bebf
000005e0: af03 6b19 6224 be3f 89eb 9d4c 5c1e 90bf
000005f0: 54a4 1c80 a4e9 ab3f 5cd9 fcfb 95da e4bf
00000600: 0ae7 ca1d 8f3e b5bf c05d c701 a463 d3bf
00000610: cf52 53ee 9625 b13f 1420 bdaa b431 cd3f
00000620: 6495 fa66 55fd 97bf f813 8517 e1e1 e0bf
00000630: 7f03 b143 6fa9 d63f 011c 58d9 c4d3 d93f
00000640: 6c30 7baa 6bcb e8bf f614 651b 73c2 c8bf
00000650: 5ea2 fbda e501 9abf 9e93 d31c d0bb ce3f
00000660: 3e40 d520 b032 b3bf 9f54 4f61 3f26 f9bf
00000670: 1032 5627 2327 cfbf 2d4a 3b06 1a34 c7bf
00000680: 404a 3052 33bb d63f 44ce 1e77 9ea8 b1bf
00000690: 98ea a90f 2f47 da3f c563 a2c7 aecc c7bf
000006a0: b78e eed9 4946 e83f 0fc0 8e3a 3c4b a0bf
000006b0: bcee 1e91 7be5 cabf ad1a 2fcd c8cb ca3f
000006c0: 8eb7 6d47 6979 a4bf 62dc dfa3 329d d93f
000006d0: 2f5d 9111 1409 a4bf d218 bcab bb63 c5bf
000006e0: fb48 35fa a296 d9bf 5806 711f 6393 f13f
000006f0: f82c 4e43 296f cc3f 09e9 808a e7d2 ccbf
00000700: 2de0 db0c 8e03 a03f 85e0 1713 deee debf
00000710: 12af 7f7c d6ad ecbf d8a7 9e86 8dc1 e7bf
00000720: 13be d0a4 dbd2 b53f b517 968f e9af d8bf
00000730: 7eb9 3eb1 2992 893f 873b 0516 625b c83f
00000740: a333 ff12 4ecd c83f bc83 f352 45e8 ccbf
00000750: e159 897f 535f d0bf 4655 93a8 08b2 d83f
00000760: 25d9 dd8a 819e d63f 37bf 26cb 3b5a d2bf
00000770: 0995 f45d 05e3 bf3f 801e c9b0 6afe bb3f
00000780: b68e 82ca d074 cfbf 04ca 60b2 4644 cb3f
00000790: c26b 98ef db2b ab3f 17cb ae93 8967 d4bf
000007a0: 0eaa a812 65ec cebf 5bb6 99c5 4f56 b93f
000007b0: b60c f970 8c95 e13f 3b5a 6151 458c c63f
000007c0: 163a e3fe 30c1 b3bf 0fd1 aa52 5d1e c9bf
000007d0: 346d c880 ce5a c83f b92a 7f7e 44b9 c23f
000007e0: 03e7 77cc 2f3b 87bf 1ca4 aa73 c8f8 80bf
000007f0: 9f46 02e6 3380 d2bf 2e40 548b ef95 d23f

mlp.net.2.weight f8 [21, 2000]
-0.011359727821116668 0.00885548479389419 0.0025842277598768742 0.028252996994382797 -0.054443001372367815 -0.04930139180962698 -0.00452090614645708 -0.05749682319972796
-0.02984853155161399 0.02565491573933142 -0.03060621405742169 0.04453944606322497 -0.010784539166684922 0.02182588541384362 0.047623547727402266 -0.02627354394879149
0.02033845665225169 -0.021712884633033277 -0.02037368183304888 0.019893300071163213 0.021620300764371336 0.017814123993456988 -0.015103076065310491 -0.004152746682566443
-0.05447939940729917 0.041867570626116915 -0.03935186585673541 -0.01137924110392548 -0.01187643590279265 0.04563180949882395 0.013662219538542705 0.0506419883688628
-0.025665515068263933 0.04173509227270823 0.031104361581735455 -0.011716534481530459 -0.019702265374312106 0.01097331412159123 0.0020207751480506055 -0.04395092206401955
-0.003539963480028999 -0.04273442330188653 0.04504101523111881 0.03141419792800156 -0.006423291877398588 -0.02474170451011208 -0.01657555374364144 0.03556542494175828
-0.03781252285200266 0.00894597341864735 -0.01986087818578129 -0.03813628485331106 -0.043966032244885635 0.021227687683300522 -0.03248056671826298 0.005814120756558673
-0.02071031244522504 -0.04214891266217013 0.04476475680930187 -0.03975357928644639 -0.008472115910346571 0.03947005237643521 -0.050514204910019164 -0.010974754017677179
0.011238260888802145 0.05224705549163494 0.022510525111966224 0.004416221413944254 0.0287348797648017 0.022802941052931375 0.09948864148404682 0.026514400260888263
0.027365902389738406 0.035464788820915756 -0.031458730573834255 0.005122353258503371 -0.0877998055195425 0.006073613831649639 0.017141655920595127 0.01681395662406039
0.020045200590225572 0.011385764078085395 0.017853649069666504 -0.02041423629652215 -0.044570533542088314 0.018821442143232146 0.028095189995388976 0.010625155364407769
-0.07231557108039971 0.03215461800891334 0.027062738262369993 -0.026018721556684065 -0.021823108131306168 0.012979580109867116 0.0553087799505706 -0.019086656131569246
0.035982446732052184 -0.020703037352444716 0.03695356230351451 -0.09482649050004087 -0.021160345733852073 0.038466916094970764 -0.03866505827705613 0.05750731936651436
0.03046273030847873 -0.03686875751490758 0.053491770341025036 -0.012887571592094995 -0.03659064509641236 -0.01883842933199235 -0.03954400646154417 0.009225874428452652
-0.046484311261774366 -0.03845548566150619 0.026922456899780497 0.03230343219351354 -0.032502555569307715 0.03493331526969393 -0.011262597353430498 -0.0052312541684960325
-0.03578688801811159 0.011455882611420089 -0.027539056596488344 -0.015480199192657107 -0.013821827480824112 0.019598640775620457 0.016059533534571624 0.022454313900237218
0.02326707673867273 -0.035555498922276385 -0.009374080230777817 -0.013819515796640692 0.00358968577760417 0.0024685582210773284 0.026274353837027444 0.016598356070242376
-0.005136789664525053 0.0015028951487509943 0.02462071589613346 -0.046486180350338434 -0.019811783710701216 -0.0410471255474695 0.0008713544286306713 0.045772569976414275
-0.028537832570499105 -0.02938454245422383 -0.025454733988622066 -0.030398275567821275 0.024142975389849823 0.002162121566615755 -0.03644508683923146 0.004519254047566881
0.016670882365847472 0.01014522963049637 0.041717208492009106 0.0033802360308800294 0.013428515755752398 0.024303710561400776 0.03802276326257778 0.01434349654714896
0.0010807600908770486 0.022253867611248885 -0.005124709507683763 0.016864705398723326 0.023392891097166787 -0.03382576564350447 -0.006177739289574617 0.028182108235978998
0.06231491728798329 0.027077611343782962 -0.051772660078632946 0.007146026290510843 -0.02186534154496383 0.006873461806588657 0.019955654184655114 0.03945780428899423
0.01651842395924917 0.05777784849776794 0.0172214198832682 -0.008247758370470997 -0.03992034518483978 -0.0008248123307760758 0.015736461971316375 0.03573496512761208
0.04609571542275511 -0.0236653163403666 0.012060605622932584 0.02938499867161416 -0.02869515360224881 0.005229244719475884 -0.019808542990381386 -0.027184884496168706
-0.014818056481278968 -0.07432744441257104 0.013719718882151793 0.022410054074036498 -0.039762302729042916 -0.031180835316458627 0.018015274601420304 -0.0008226172397314716
-0.02193279287558794 0.012838264516581998 -0.040481235802301035 -0.07036114439069285 -0.0174567592944049 -0.02036978738773234 -0.02786761941870174 0.026612430762883606
0.03614540979925402 0.0035428439122599234 0.020767340567812237 -0.017188652549931255 0.04424280815022502 -0.026091902635068456 0.020812141446921915 0.014513778451685905
0.011292626824119524 -0.06303857181856864 0.028198686427512217 0.031003974946940575 -0.01020299664069881 -0.015155361079789249 -0.006113880704939561 -0.030010010065633867
0.011080081387548468 -0.023613045569790506 -0.009832595185653246 -0.011467235255586907 0.04044473207129661 -0.02767002297195146 -0.029201771217877814 0.008744369752088959
0.03194645052430639 0.10595399316058111 0.014940281963020694 0.015580015188637613 -0.10545492251902765 0.030375504834157255 -0.009423494354626567 -0.0034115158932649155
-0.002741011756687373 0.003297816598143695 -0.02689808334066049 0.015265607402112852 0.02514457111610669 0.027236811670860964 -0.021231027406897827 -0.0906581042596917
-0.01375925493600546 -0.04445787109481076 -0.010204629376653332 0.022735355033453416 0.011994266569954629 -0.016651295253671268 -0.0344250402625767 0.05223702118754795
00000000: a481 dddb c443 87bf 7cd7 a30c d322 823f
00000010: f7cb d9b6 842b 653f 8760 6b88 5aee 9c3f
00000020: e3e2 c7fc f3df abbf 5c73 f032 083e a9bf
00000030: 17d1 c180 8384 72bf 4490 883e 3970 adbf
00000040: 5127 640b 9d90 9ebf 9d08 5440 4845 9a3f
00000050: 7d58 b941 3c57 9fbf 896f 72d0 dfcd a63f
00000060: 5ece 2f58 3416 86bf 511c 3c60 8659 963f
00000070: bc72 0418 1d62 a83f ed51 0ab0 73e7 9abf
00000080: edac b0b8 9ad3 943f cf50 9a05 e73b 96bf
00000090: ff2e b0a4 d6dc 94bf 0753 dcc4 e85e 943f
000000a0: 33c3 d9d2 a123 963f 2dcc d59f dd3d 923f
000000b0: 4bf4 278e 5cee 8ebf 4c0a 0b73 7802 71bf
000000c0: 1f28 854d b9e4 abbf 024c 348d aa6f a53f
000000d0: eb52 c881 ed25 a4bf e942 28e3 ff4d 87bf
000000e0: 4841 5d3e ac52 88bf 20d5 e872 0d5d a73f
000000f0: 6bd9 de10 f0fa 8b3f f085 b227 bfed a93f
00000100: 53aa 698f 0f48 9abf 424b d050 4d5e a53f
00000110: 3eab 065f d2d9 9f3f 1273 5da3 d6fe 87bf
00000120: a856 c2a5 d42c 94bf d56c 3f4a 2d79 863f
00000130: 88e0 8c65 df8d 603f 85bb c939 bc80 a6bf
00000140: 8737 066c d7ff 6cbf a773 fd4c 49e1 a5bf
00000150: f0e6 caae 9d0f a73f 5b30 7691 8515 a03f
00000160: 37c8 bc48 4f4f 7abf ec76 dfae e355 99bf
00000170: ced6 f794 2ef9 90bf fe83 fca1 a135 a23f
00000180: 31a5 0eba 295c a3bf 499f 1c3a 4452 823f
00000190: dc6f 1cf9 6856 94bf 59c9 7860 9986 a3bf
000001a0: 45da 403d b782 a6bf 6058 7a01 b6bc 953f
000001b0: f6f7 9ef7 4aa1 a0bf b514 1228 8cd0 773f
000001c0: 8298 918a 1535 95bf 9f57 e4d2 8a94 a5bf
000001d0: d9c8 04fd 67eb a63f 6e53 dec5 945a a4bf
000001e0: 3c56 1a26 d459 81bf f2a2 4130 6b35 a43f
000001f0: e6d9 2474 ffdc a9bf e656 b38c ee79 86bf
00000200: e1be d9d7 1504 873f 9838 4c45 20c0 aa3f
00000210: 52cd afc4 ff0c 973f f370 b768 be16 723f
00000220: 3c94 6023 ad6c 9d3f 48c1 4c78 a759 973f
00000230: e258 7f6d 1678 b93f 246a f947 9726 9b3f
00000240: d066 289f ce05 9c3f 316f 4ad8 7028 a23f
00000250: 9901 fad5 5b1b a0bf d4cf 943b 2dfb 743f
00000260: 5a35 4d4d 0c7a b6bf 9b51 684c a5e0 783f
00000270: 5e1e 500e 958d 913f 844d 4487 ad37 913f
00000280: af38 e8a3 ba86 943f e2c0 d762 6b51 873f
00000290: 6b52 791b 3a48 923f 9ac5 1035 78e7 94bf
000002a0: a469 dbef f2d1 a6bf e9fc df99 ed45 933f
000002b0: 4506 d248 fcc4 9c3f 3abe 7036 a4c2 853f
000002c0: 4c29 c8f4 4583 b2bf d8fd 86f1 9176 a03f
000002d0: b1bc 1b9f 55b6 9b3f c3c2 add8 a6a4 9abf
000002e0: 2056 e2fe cb58 96bf 8697 b3c0 0995 8a3f
000002f0: 5083 23b2 6e51 ac3f 0317 80cf 738b 93bf
00000300: 9e71 e38f 4a6c a23f df2c 6d51 2d33 95bf
00000310: 0beb 20cb 93eb a23f 3ffc 7d83 8c46 b8bf
00000320: c485 98c3 0eab 95bf 4f35 3685 efb1 a33f
00000330: 1085 9811 e8cb a3bf c66b eb6f 9971 ad3f
00000340: 2ee8 af39 9f31 9f3f de96 8a37 76e0 a2bf
00000350: 908f 70f8 4563 ab3f ce6e 1a94 cc64 8abf
00000360: 19a9 0e50 02bc a2bf 8b3f 8e97 614a 93bf
00000370: 5aa2 02ad 1c3f a4bf 2de1 93e7 03e5 823f
00000380: a6f5 4aa9 cacc a7bf d732 89fa 6fb0 a3bf
00000390: 6c6d a67f 8f91 9b3f f5ae a351 138a a03f
000003a0: 62c7 69ca 2ca4 a0bf 3596 3f8d c7e2 a13f
000003b0: c372 683a d810 87bf 16cf 2119 5e6d 75bf
000003c0: a1a9 53b3 a852 a2bf d48b 4d89 2e76 873f
000003d0: fa47 c7cd 3233 9cbf cdeb 242a 15b4 8fbf
000003e0: 603d 0248 9e4e 8cbf 2099 b584 aa11 943f
000003f0: 30ae 470d e971 903f 1f2c 6c7f 43fe 963f
00000400: cf1b aa16 53d3 973f 00d7 2092 5434 a2bf
00000410: 0e90 2bc0 b732 83bf da1f 2503 684d 8cbf
00000420: 9e36 91e0 1d68 6d3f 7654 7d1a f138 643f
00000430: 5773 d009 aae7 9a3f 98ca f4d1 28ff 903f
00000440: a55b d979 500a 75bf 9e4f d860 999f 583f
00000450: 60df 4f46 2c36 993f bb2d a460 09cd a7bf
00000460: b798 734c 8a49 94bf b372 a4fb 2004 a5bf
00000470: c8c5 1863 738d 4c3f 2984 3496 806f a73f
00000480: 5827 5b86 0539 9dbf bd2f 6543 fb16 9ebf
00000490: 5cbd 0948 ce10 9abf 63a2 acbd b920 9fbf
000004a0: aeff e8a6 efb8 983f db18 652d 4cb6 613f
000004b0: 0515 2630 eea8 a2bf d0c6 6205 c882 723f
000004c0: 0324 3afa 2b12 913f c981 c9ab 05c7 843f
000004d0: b0a3 4e3c f55b a53f 408f 9266 deb0 6b3f
000004e0: abc8 09e0 6880 8b3f 3b73 2168 12e3 983f
000004f0: bcc1 6e39 b877 a33f 0771 a484 1f60 8d3f
00000500: 1e5b b04f 09b5 513f 3539 66c6 b7c9 963f
00000510: a2c2 cabb a5fd 74bf e4a6 9338 fb44 913f
00000520: bc87 e258 4ef4 973f 0feb 665a 9c51 a1bf
00000530: 5118 6443 d44d 79bf 80cd d244 c5db 9c3f
00000540: 1a13 9ca7 bde7 af3f 048e b3bc 3bba 9b3f
00000550: d6b3 ba33 f281 aabf 66f4 6cd3 2645 7d3f
00000560: efec 673b de63 96bf 03b2 b6da 5827 7c3f
00000570: d09e 5f48 416f 943f 8c84 fc35 d033 a43f
00000580: 9ce9 beaa 34ea 903f 155a 76e3 0e95 ad3f
00000590: 61dd c1ec 7da2 913f 895b bb63 33e4 80bf
000005a0: 4020 0782 7070 a4bf cded 35fe 0607 4bbf
000005b0: 9a11 1616 381d 903f 6ef5 1775 da4b a23f
000005c0: 0bf2 738c db99 a73f fceb ec7e b83b 98bf
000005d0: d97a c315 3bb3 883f 037d 26e1 1917 9e3f
000005e0: b9f6 1929 4362 9dbf bacc d8b0 426b 753f
000005f0: 84e6 4cd1 b048 94bf d723 6db7 5ad6 9bbf
00000600: 76a9 d1df ed58 8ebf 037f f296 1f07 b3bf
00000610: 63f3 457f 1519 8c3f dcf7 6545 a9f2 963f
00000620: d176 ab7b b95b a4bf f8db c86f deed 9fbf
00000630: 695b f79c 9872 923f 9d99 2512 9df4 4abf
00000640: 073f 71d0 8c75 96bf 4691 e3b1 f24a 8a3f
00000650: 84be bedf f4b9 a4bf 6031 111e 3003 b2bf
00000660: 96f0 0d49 2fe0 91bf e68b a04a d1db 94bf
00000670: fd31 1548 5489 9cbf 6fb2 2cff 4940 9b3f
00000680: 4904 fab1 a681 a23f 3e9b 9dd7 e105 6d3f
00000690: d82c 41a2 0844 953f d5cd 41f2 e699 91bf
000006a0: 3845 2d4c fea6 a63f 643a 08f2 d5b7 9abf
000006b0: e63c 7f2b c74f 953f 4abf 545e 66b9 8d3f
000006c0: 6109 2ab7 9620 873f a0e8 58bc 4b23 b0bf
000006d0: 5f3c fccf 1de0 9c3f 71bf c589 81bf 9f3f
000006e0: cbdc 2407 4fe5 84bf 17fa 9221 c609 8fbf
000006f0: 79a9 de5a de0a 79bf 615b 23af f1ba 9ebf
00000700: 0683 9259 27b1 863f c4c1 eca9 042e 98bf
00000710: 72b8 0e96 1c23 84bf 81af 2f43 227c 87bf
00000720: df59 1503 2cb5 a43f 6af5 f9ce 8755 9cbf
00000730: 40d8 76b1 11e7 9dbf d6f4 df70 91e8 813f
00000740: 884a 7300 495b a03f 935b 8107 cd1f bb3f
00000750: 12bf 64b3 0299 8e3f 83ab a63d 6ae8 8f3f
00000760: 57e3 6b03 18ff babf 54e3 729f c11a 9f3f
00000770: 178c 8900 a04c 83bf cc98 1fa6 77f2 6bbf
00000780: ce26 4b7b 5174 66bf 5dd0 fdcd 0504 6b3f
00000790: c8c6 17d1 2b8b 9bbf dd7d 5d24 9343 8f3f
000007a0: 4266 769a 7fbf 993f 74a0 7e7d f7e3 9b3f
000007b0: 760f 7e21 96bd 95bf f2a8 e998 5e35 b7bf
000007c0: ec60 bdef cf2d 8cbf 69d2 cd9c 2ec3 a6bf
000007d0: fb32 862b 2ae6 84bf 2f97 53d9 ef47 973f
000007e0: 087b 4235 7390 883f 82c5 3382 090d 91bf
000007f0: 58b8 2eac 28a0 a1bf 352e 4893 cfbe aa3f

mlp.net.2.bias f8 [21]
-0.017597527315728983 -0.00986730363576273 0.0007365112263180005 -0.02409154424747465 0.020596089616830106 -0.029845743155407226 -0.024115718771666184 -0.02851230044148072
0.02208308743253543 -0.008134282567823364 -0.02385368829602913 0.00029729091062300714 -0.04077768933398187 -0.012708498712171815 0.005160012396287821 0.013634054635432257
-0.004523686528165042 -0.0017307317238310772 -0.032105020583668285 0.008592145828372016 -0.007329590635369985
00000000: cbff 3e11 1605 92bf 498a 5213 4f35 84bf
00000010: 797f a9d0 4d22 483f aab6 9c2a 74ab 98bf
00000020: 5aaf 512d 2417 953f e1f1 1beb e18f 9ebf
00000030: e07d c67d cab1 98bf 0d34 b817 5432 9dbf
00000040: 2911 45e9 f29c 963f d07f d7ec b4a8 80bf
00000050: 3050 7bec 196d 98bf 91e6 0fbd b67b 333f
00000060: d319 3134 d0e0 a4bf b5df ccd2 e906 8abf
00000070: f9fc d247 aa22 753f d920 2bd6 2bec 8b3f
00000080: 0419 22db 6d87 72bf be6f ba09 375b 5cbf
00000090: 5376 e3ba 1170 a0bf 96bc ae4a c298 813f
000000a0: 8bd6 2601 a205 7ebf

readout.weight f8 [3, 27]
-0.08293824347093369 0.023378257939790016 -0.024579665776863303 -0.15189800318862126 0.14253315959560264 0.01902467763638398 -0.007257454001153381 -0.004516241266731917
-0.051712805761795405 -0.03981930683636165 0.0057916039452739505 0.028041794425181336 -0.0837856232730493 -0.002053460600987365 0.03733035816320087 -0.02420274355186971
0.010411990016430804 -0.00828867730180942 -0.004613418765491051 -0.037811271977973404 -0.008336503706871152 -0.02709452885411896 0.048928471092346444 -0.05818263688829003
-0.030482068948385913 0.0170306883427632 -0.007230485915075492 -0.21778976177058024 -0.17857534889744092 -0.11753147795824073 -0.06446049401516911 0.07613776745182863
0.04245096096677978 0.03255413774202985 -0.0408142930742229 0.032395068622025895 -0.014436839291631972 -0.1253708363507147 -0.07920021361599021 -0.1648390894802559
0.06973345884384777 -0.02627210405323315 -0.030096932351303583 -0.08063109685552004 -0.057423249740684454 0.06454155622086119 -0.12394946676071879 -0.08088287166749289
0.006240757085467988 0.010081463599384121 0.001270490628778278 -0.09823998196743819 0.07571173636532487 0.06858542614192042 -0.08018078656708864 -0.050551736025896715
-0.16932613746637615 0.0476678943804999 0.09391302861591921 0.17735507091739114 0.05914893728452068 -0.13816416101935974 -0.007033176066782671 0.022212308952867136
0.016036575640288153 -0.1419852921632508 -0.1793259256784318 -0.07875648602313286 0.06018367122434847 0.09148680661119311 -0.01470849275336591 0.09193934332375077
-0.003337926739977554 -0.01152189482007418 0.01114748031718305 -0.11140034538737353 -0.014261107743151188 -0.0030217761627087873 -0.0747539977099642 0.056377462524696095
0.13574956475183625
00000000: c79b 4bd3 703b b5bf 6ac8 2755 78f0 973f
00000010: 3a09 a272 692b 99bf 29ec 02ce 6471 c3bf
00000020: 3c82 87cd 863e c23f ad93 0f81 347b 933f
00000030: e214 65f9 fdb9 7dbf 1ed1 a948 9f7f 72bf
00000040: 1408 10d3 197a aabf b91e 3939 3263 a4bf
00000050: 42d5 94d8 efb8 773f aec3 e8f7 fcb6 9c3f
00000060: 592d d57f f972 b5bf 62e5 fe43 6bd2 60bf
00000070: d3f6 eaf6 f61c a33f 0672 1da0 9ac8 98bf
00000080: 8cd3 daa4 e152 853f 99c7 816f a7f9 80bf
00000090: 8d51 872b 85e5 72bf b090 21c1 ff5b a3bf
000000a0: d79e 4596 ba12 81bf 53dd 500d abbe 9bbf
000000b0: 71ac 5e0e 270d a93f fbaf 4255 1dca adbf
000000c0: 24ae fd04 b136 9fbf d996 d725 7e70 913f
000000d0: 9b89 a1c8 b69d 7dbf b2a8 1af0 88e0 cbbf
000000e0: 3a72 b199 8edb c6bf cac8 14fe 8a16 bebf
000000f0: 1bdd ada1 7b80 b0bf ce30 32c5 c37d b33f
00000100: 9c7a 12e2 21bc a53f ae2a e799 efaa a03f
00000110: 8f21 ed6b 9ce5 a4bf af09 9120 1696 a03f
00000120: bedc ebc4 0f91 8dbf 71ce ffcc 260c c0bf
00000130: d31f 5117 7746 b4bf 63c6 3581 7219 c5bf
00000140: 8ad9 2b4d 0dda b13f eeae d20e 13e7 9abf
00000150: 7695 a2f0 bad1 9ebf 27fa 0854 3da4 b4bf
00000160: ae22 5587 9466 adbf 6698 33a1 cb85 b03f
00000170: 8d0b 18fa 26bb bfbf 8a52 9e68 bdb4 b4bf
00000180: 6a8f 5979 e88f 793f c62f a423 97a5 843f
00000190: 3d9e d4ec d2d0 543f eeb3 b565 4126 b9bf
000001a0: 25c9 9c27 d861 b33f 7803 4382 d08e b13f
000001b0: 5bbd 1260 ba86 b4bf 0479 f9c9 eae1 a9bf
000001c0: c856 6397 7aac c5bf 70ea dd1e ed67 a83f
000001d0: 08dd 922a af0a b83f b55a af2a 92b3 c63f
000001e0: 06d9 75fe c448 ae3f ce59 87fc 5caf c1bf
000001f0: 87f9 19d3 d1ce 7cbf b1b8 15d2 d2be 963f
00000200: 20d3 a85f e46b 903f 5a55 2df5 922c c2bf
00000210: b690 0ee5 26f4 c6bf 6d36 d193 6229 b4bf
00000220: 87d6 52e7 64d0 ae3f df19 69ea ad6b b73f
00000230: 2d14 cb7a 7c1f 8ebf c18d ca38 5689 b73f
00000240: daa1 e8c5 2358 6bbf 1078 858b ca98 87bf
00000250: c32c 297b 7dd4 863f 00ae 33a8 bb84 bcbf
00000260: 187d e47a ed34 8dbf afe8 6db9 1fc1 68bf
00000270: 9bd8 68f7 1323 b3bf 6ed1 8cbb 81dd ac3f
00000280: 6616 87e2 3d60 c13f
